logs_goemotions/class18/goemotions/256/pa/0.01/checkpoint/goemotions_256_pa_0.01.pth (torch, 57138 bytes, 2 tensors)

classifier.weight f4 [18, 768]
-0.01308475 -0.009989793 -0.00717253 -0.003060139 -0.0014759041 0.011348216 0.014273072 -0.022289805
-0.041793406 0.032715037 0.026894353 -0.008430861 -0.035981476 -0.0025805512 0.008247046 0.020051993
-0.019191938 0.0110999 -0.012799963 0.010059566 0.0034335991 0.029576108 0.012937051 -0.0066024847
0.019871982 -0.011105491 0.011784115 0.010757448 -0.012664655 -0.014170551 0.006906226 -0.0049588536
-0.0037800628 0.0043874425 -0.019670412 -0.018278828 -0.011785739 0.008734503 -0.014177083 -0.006351209
-0.021279713 0.0054388056 0.0038776426 -0.0045016487 0.0014411452 -0.0031357356 0.012817913 0.024874086
-0.024788199 -0.031522803 -0.031659473 -0.008605201 0.013280254 0.022879047 -0.0023369303 0.008285412
0.007862596 0.019623317 0.025386164 0.0012777904 0.020310003 0.023532698 -0.00023838604 0.010821769
-0.0042547295 0.004255897 0.028297508 0.03038663 -0.0038976485 -0.024674557 -0.01828202 0.016802784
0.002548652 0.013057779 -0.0049735587 -0.0011651831 0.01879103 0.0065734866 0.026287103 0.0017568399
-0.0030374231 0.010462588 0.009934391 0.0030463764 -0.0062525673 -0.0040080613 -0.014436102 0.0056797527
0.0017895657 -0.0021110843 0.016355585 0.019162433 0.009144226 0.018614644 -0.041527018 -0.012692569
-0.014435067 0.00865031 0.027223961 -0.023819495 -0.00010876478 -0.005481675 0.0050128414 0.0050252285
-0.005915009 -0.0023464612 -0.06086008 0.010997927 -0.009622703 0.008351595 0.015242284 0.0073469854
-0.005673221 0.0016145117 0.0033943832 -0.010506782 -0.00033053127 0.024163784 0.002327403 -0.002655755
-0.0017460012 0.024400868 0.024919005 -0.04081206 0.0016296498 0.019717373 -0.006828907 -0.0015251681
0.006921001 -0.0061943536 -0.01117581 -0.0035101685 0.009588044 -0.04109726 -0.001531769 0.015103612
0.011804983 0.0073404512 0.029778536 0.011369291 0.0035341498 0.010343602 0.0058346735 -0.044793613
0.026919495 -0.017273389 0.0072626583 -0.029343015 -0.020454861 0.01509633 0.0010686272 0.016805096
0.030204032 0.016668051 0.01949898 -0.03144327 0.0062297275 0.009551168 -0.023589857 -0.0167876
-0.01458636 0.019917244 0.025622185 0.021955896 0.01996354 0.0059986147 -0.023004917 -0.02152118
-0.0006058169 0.001078733 -0.013002825 -0.015355483 0.0035154554 -0.003574708 0.034127835 0.012817754
-0.00051252736 -0.016574562 0.0101574315 -0.019556534 0.0015148856 -0.011226971 0.015396899 -0.022119131
-0.016254395 0.004710023 0.010250299 0.016775973 0.012582415 -0.008720285 0.008937481 0.00839888
0.01655153 0.0021559822 -0.0014025145 0.0015871583 -0.011195203 0.00056916743 -0.030109778 -0.013203478
-0.009476561 -0.0043564667 -0.00905381 -0.016915873 -0.016304005 0.004813439 -0.0103106145 -0.022497887
0.039874297 0.009304035 0.0069757155 0.04075722 0.020160826 0.006928213 -0.0024500783 0.0003718946
-0.0023874722 0.005930479 -0.0052324324 -0.0012462197 0.025609838 -0.0035747723 -0.017718289 -0.023721548
-0.018095313 -0.0022680587 -0.010808179 -0.0037913779 0.023327682 0.0073842164 0.011058115 0.014638081
-0.016941652 -0.0034391514 -0.01668844 -0.031356804 -0.008584022 0.009075954 -0.009356044 -0.02902317
-0.040468093 0.019568736 -0.008914355 0.0060012867 0.01825127 -0.009108936 0.018750539 -0.012194156
0.00101728 -0.0004902609 0.0045813774 -0.010973711 -0.00797464 -0.047186777 -0.01564572 -0.009106019
00000000: 6b61 56bc 3bac 23bc 8b07 ebbb 9d8c 48bb
00000010: 2073 c1ba deed 393c 9ad9 693c 1c99 b6bc
00000020: 902f 2bbd 3400 063d 8c51 dc3c 9821 0abc
00000030: 5061 13bd 771e 29bb 9e1e 073c 1444 a43c
00000040: 6938 9dbc 5bdc 353c f0b6 51bc e1d0 243c
00000050: 3c06 613b 9849 f23c edf5 533c a859 d8bb
00000060: 91ca a23c cef3 35bc 2912 413c 0240 303c
00000070: 6a7f 4fbc 992b 68bc 9f4d e23b e17d a2bb
00000080: eeba 77bb 89c4 8f3b d823 a1bc 7bbd 95bc
00000090: f918 41bc 291b 0f3c ff46 68bc cd1d d0bb
000000a0: cb52 aebc 0238 b23b 0c20 7e3b 9182 93bb
000000b0: cfe4 bc3a ea80 4dbb 3902 523c bdc4 cb3c
000000c0: 9f10 cbbc 0e1e 01bd 5dad 01bd d4fc 0cbc
000000d0: 6c95 593c d76c bb3c 2f27 19bb 89bf 073c
000000e0: 1ed2 003c 14c1 a03c a5f6 cf3c 887b a73a
000000f0: 2a61 a63c a5c7 c03c 44f7 79b9 ca4d 313c
00000100: 426b 8bbb 0d75 8b3b 2dd0 e73c 62ed f83c
00000110: b16f 7fbb 4c22 cabc 2dc4 95bc fea5 893c
00000120: 4907 273b 4bf0 553c 3cf9 a2bb 0fb9 98ba
00000130: a5ef 993c 6766 d73b 0d58 d73c c445 e63a
00000140: 810f 47bb 466b 2b3c dbc3 223c b7a5 473b
00000150: 56e2 ccbb 0e56 83bb 6685 6cbc 381d ba3b
00000160: dc8f ea3a 1e5a 0abb 26fc 853c 89fa 9c3c
00000170: aad1 153c bd7d 983c 3c18 2abd 7ef4 4fbc
00000180: 0f81 6cbc 08ba 0d3c c904 df3c 1a21 c3bc
00000190: a618 e4b8 9f9f b3bb c342 a43b acaa a43b
000001a0: b1d2 c1bb 16c7 19bb 6b48 79bd a630 343c
000001b0: 8ba8 1dbc 21d5 083c c6ba 793c fbbe f03b
000001c0: 6de6 b9bb 069e d33a 4d74 5e3b a324 2cbc
000001d0: 284b adb9 21f3 c53c 5887 183b 2d0c 2ebb
000001e0: 14da e4ba 54e4 c73c f122 cc3c 8c2a 27bd
000001f0: f999 d53a 5486 a13c 06c5 dfbb 26e8 c7ba
00000200: 90c9 e23b 01fa cabb bf1a 37bc db0a 66bb
00000210: 2c17 1d3c 9a55 28bd a4c5 c8ba 2475 773c
00000220: b069 413c 2b88 f03b 1ef2 f33c 4346 3a3c
00000230: 329d 673b 3678 293c ca30 bf3b 8279 37bd
00000240: 4686 dc3c ec80 8dbc 98fb ed3b c360 f0bc
00000250: f490 a7bc 9956 773c 2e11 8c3a d7aa 893c
00000260: 726e f73c 708b 883c 53bc 9f3c a9ca 00bd
00000270: be22 cc3b 817c 1c3c 843f c1bc 2686 89bc
00000280: a1fb 6ebc 7d29 a33c 9ee5 d13c dadc b33c
00000290: 948a a33c 0790 c43b cf74 bcbc 304d b0bc
000002a0: afcf 1eba 4664 8d3a cd09 55bc 9095 7bbc
000002b0: 8e63 663b a645 6abb a1c9 0b3d 8f01 523c
000002c0: 215b 06ba 60c7 87bc 5b6b 263c 0635 a0bc
000002d0: 208f c63a 54f1 37bc 4643 7c3c 2e33 b5bc
000002e0: f027 85bc 8956 9a3b dff0 273c c46d 893c
000002f0: 7926 4e3c 87df 0ebc 836e 123c 759b 093c
00000300: 1397 873c 614b 0d3b 94d4 b7ba 3208 d03a
00000310: 166c 37bc 2e34 153a c8a8 f6bc 6753 58bc
00000320: 9443 1bbc b1c0 8ebb 6e56 14bc 2893 8abc
00000330: fa8f 85bc 0eba 9d3b daed 28bc 7d4d b8bc
00000340: 3b53 233d f46f 183c 8b94 e43b 0bf1 263d
00000350: 5128 a53c 1006 e33b 7e91 20bb d9fa c239
00000360: 2377 1cbb 7754 c23b d374 abbb 3258 a3ba
00000370: b9cb d13c ba46 6abb f225 91bc b153 c2bc
00000380: 9f3c 94bc b6a3 14bb ca14 31bc c478 78bb
00000390: b219 bf3c 4cf7 f13b 192d 353c 90d4 6f3c
000003a0: 38c9 8abc 6363 61bb 32b6 88bc fe6f 00bd
000003b0: ffa3 0cbc 4fb3 143c 184a 19bc 00c2 edbc
000003c0: dfc1 25bd 9d4e a03c 840d 12bc 71a6 c43b
000003d0: b083 953c a63d 15bc bb9a 993c ffc9 47bc
000003e0: 4156 853a da84 00ba 611f 963b 14cb 33bc
000003f0: 10a8 02bc ec46 41bd 742b 80bc 6931 15bc

classifier.bias f4 [18]
-2.2795975e-05 -4.0714298e-05 -5.7488844e-05 -0.0003770187 0.00017270331 0.00016504232 0.00013024852 -0.00024076148
0.00039314377 0.00032274233 0.00033238425 -0.00012017784 9.884188e-05 0.0003531992 -0.00022565911 -0.0001736343
2.4702344e-05 -0.00038701238
00000000: fc39 bfb7 a5c4 2ab8 2d20 71b8 98aa c5b9
00000010: b117 3539 360f 2d39 5293 0839 eb74 7cb9
00000020: dd1e ce39 be35 a939 dc43 ae39 fd07 fcb8
00000030: 5549 cf38 982d b939 e89e 6cb9 9a11 36b9
00000040: e137 cf37 ece7 cab9
