logs/tabular-Linear/goemotions/256/pa/0.001/checkpoint/goemotions_256_pa_0.001.pth (torch, 87928 bytes, 2 tensors)

classifier.weight f4 [28, 768]
00000000: ffb6 79bc 2367 94bb 6526 133d 0a3f ebbd
00000010: bad5 5bbd dc04 093d 771f c73b ec35 91bd
00000020: b7f5 4dbb 25c4 b83c 7ab2 bfbd 826c 2dbd
00000030: d5b6 783d a0fe d53d bd88 6dbd 3ee5 d7bb
00000040: 43f4 d4bc 60fa 913c 0c07 d53c 9d42 9f3b
00000050: 1cd9 6f3d 3d54 eabc 17b6 763d 0e95 f0bb
00000060: 272f 473c 674a 5bbd 153f 2c3d 0538 eebc
00000070: 77e9 a7bd a716 bdbc a058 d6bc 11a0 873b
00000080: a747 a73c 5e2d 8b3d fa6a 96bd 145b 843d
00000090: 7c3c f03d c110 083d 823d b23c 3f75 d8bb
000000a0: 60a9 96bd 21d4 9cbb a4d1 383d e841 153d
000000b0: 4f47 293b 138d ee3c a655 05bd e182 8cbb
000000c0: a7ba dabc a97d 6fbd 0d40 713d e448 1dbd
000000d0: 698a 533d dea3 c03c fa3b 943c 8d1b 65bd
000000e0: 0696 28bd 8774 383d fcac 313d b2e4 4b3d
000000f0: f269 093c 5b9a e83a cad0 69bd bb31 62bd
00000100: 5d5d 5ebc af58 62bb 85db 81bd 0297 e63d
00000110: 34cd 3b3b 5f99 0d3d 080c 813c ea67 6ebd
00000120: e0f5 8f39 ec39 0abd 0083 9dbb 0f7e 973b
00000130: 10fb c23b ea8a 053d 4dca 32bc 9724 ca3b
00000140: f03d 603c 47b7 51bd 6290 01bd ee46 7e3c
00000150: d37e c5bc 90ea 3ebd de58 833b 4704 143d
00000160: 315f 4b3d 2a6f 46bc e803 e8bc ffe1 263d
00000170: 4fe0 36bc c124 a23c 1f5c 55bd 3fd2 9e3c
00000180: c2e4 e23c 9152 08bd 9c92 b7bd c32d 4e3d
00000190: 39d8 ecbc 880c 683d 77df f63c 75b7 fc3b
000001a0: b39a 553d 57bf 84bd 90c9 cbbc 72f9 353d
000001b0: b575 a5bc 37aa ed3c b235 1a3b 860e dfbc
000001c0: 725d 35bd 8d40 25bc 01fe 42bd 16a0 18bd
000001d0: cc36 413d cbe2 09bd eeb1 203d 6441 1abd
000001e0: da30 823c 120a 743d 43fd 8aba 4961 3abd
000001f0: 4c9c b7bc 3fce bf3c dd58 5e3c b210 a6bb
00000200: 8254 f13c f2d7 dfbc 86da aabb b60b 633d
00000210: 5230 18bd 2660 3a3d ac86 babc afe3 b13a
00000220: 6482 63bd 715a 1cbc 1b02 99bc 463a ac3c
00000230: 2ed6 56bd 3666 beba a2eb a33d 2c15 b93c
00000240: 9246 853d 4f74 823b 22cb a23c 8d32 fb3c
00000250: d0f6 2c3b 490a 533d 98bc 9dbc ba6d 173d
00000260: d787 de3b fbba 25bd 7b84 e33c 70f3 12bd
00000270: 33c9 c2bc 1f22 93bc 7d9c 67bd 51fb 7ebd
00000280: d11a 35bd 33be 45bb 1d9e 3cbc 10d3 b73c
00000290: 38c8 993c 5b2b 523b 196a 163d 9343 203d
000002a0: 99e5 afbc addb 29bd 7430 2dbd 1505 a6bd
000002b0: d433 0fbd 1369 96b9 dbef bfbb d917 99bc
000002c0: f8e8 47bc bf80 61bd c7a5 673d bbd8 183d
000002d0: 50ab 74bd b402 9eb9 c235 11bd 7c41 05bd
000002e0: 9749 663d acaf 723d 4f75 103d 646e 603d
000002f0: 23c4 883c 7681 17bc d113 1fbd a344 dabc
00000300: 84ec 28bd fa94 b43c 2d17 2a3d 9b85 4f3d
00000310: 6c00 d83c 1d5e a13c 2ddb 6abc c466 493c
00000320: 5992 a73d c24e 963b f8bf c7bc 84b1 953c
00000330: 1b98 9e3a fce5 00bd b268 163d 4c45 8f3c
00000340: 33c5 3a3c f43b 373c 61d4 86bc 4a7c 903d
00000350: bb48 16bc 9427 fa3b eb78 2abd 33ec f73c
00000360: 86df 193e 5870 3f3b 0ec5 d0bd 48d5 a0bc
00000370: 07ed a8bc f7d3 da3b ea54 373b f7a8 183b
00000380: 8d7e dbbc 63f1 76bd 4a36 f73c 6446 533b
00000390: 7b28 aabd 416d aabd d1df 79bd 3af8 92bd
000003a0: 5fb4 c53b 66b4 de3c 5469 cabd 3b55 31bd
000003b0: 5049 203d 87fc 1e3d b5b7 a73d 73f7 09bd
000003c0: 7b3c d4bc 96a9 ae3b 9fd5 1dba 0c6d 4fbd
000003d0: 4fa3 063c e5a3 bebc 72b2 443c 5539 00bd
000003e0: eb9d 7abb 57a7 eebc 6beb dabc c2e1 e63c
000003f0: 9634 993c f3f5 bf3c 75cf 253d 7adb 803c
-0.015241384 -0.0045288964 0.035925288 -0.11486633 -0.053670622 0.0334519 0.006076749 -0.07090363
-0.0031426975 0.022554467 -0.093602136 -0.04233981 0.060721237 0.104489565 -0.057991732 -0.006588607
-0.02599538 0.017819583 0.026004337 0.004860236 0.05855666 -0.028604621 0.06023225 -0.0073419875
0.012157238 -0.053537752 0.042052347 -0.029079447 -0.08198827 -0.02308209 -0.026165307 0.0041389544
0.020419909 0.067957625 -0.07344623 0.06462684 0.117302865 0.033219103 0.021757845 -0.0066057737
-0.073565245 -0.00478603 0.045121804 0.036439806 0.0025829857 0.029120004 -0.032552384 -0.004288063
-0.02670033 -0.05846945 0.058898974 -0.038399592 0.05164567 0.023515638 0.018095005 -0.055934478
-0.0411587 0.045033004 0.04337786 0.049778648 0.008387076 0.0017746197 -0.057083882 -0.055223208
-0.013572064 -0.0034537723 -0.06340698 0.11259271 0.0028656246 0.034570094 0.015752807 -0.05820457
0.00027458277 -0.033746645 -0.004806876 0.0046231817 0.005950339 0.032603182 -0.01091249 0.0061689126
0.013686642 -0.051200178 -0.031631835 0.015519841 -0.024108326 -0.046610415 0.0040083965 0.03613689
0.04965133 -0.0121114645 -0.028322175 0.04074287 -0.011161878 0.019792916 -0.052089807 0.019387363
0.02769697 -0.033281866 -0.089635104 0.05033661 -0.028911697 0.056652576 0.030135853 0.0077122995
0.052149486 -0.06481808 -0.024876386 0.044427343 -0.020197729 0.029011829 0.002353054 -0.027228605
-0.04427857 -0.010086191 -0.04760552 -0.037262045 0.0471714 -0.033663552 0.039232187 -0.037660018
0.015892435 0.059579916 -0.0010604042 -0.045502935 -0.022413395 0.023413775 0.013570991 -0.005067908
0.029459242 -0.02732465 -0.0052140383 0.05543109 -0.037155457 0.04550185 -0.022769295 0.0013571883
-0.055544272 -0.009543047 -0.018677762 0.02102388 -0.05245035 -0.0014526311 0.08003928 0.022593103
0.06507601 0.00398115 0.019872252 0.030663753 0.002639223 0.05152348 -0.019254968 0.036969878
0.0067910957 -0.04046152 0.027773133 -0.03587669 -0.02377758 -0.017960606 -0.056545723 -0.062251393
-0.044215027 -0.0030173182 -0.0115123065 0.02243951 0.01877223 0.00320693 0.036722276 0.039126944
-0.021471785 -0.041469265 -0.042282537 -0.08106438 -0.034961537 -0.00028688516 -0.0058574504 -0.01868813
-0.01220154 -0.055054422 0.056554582 0.037316065 -0.05973369 -0.00030138122 -0.035451658 -0.032533154
0.056222524 0.059249565 0.035268124 0.054792777 0.016695088 -0.0092471745 -0.038837258 -0.026644057
-0.041241184 0.022043694 0.04152601 0.050664525 0.026367389 0.019698197 -0.014334482 0.012292568
0.081822105 0.0045870254 -0.02438353 0.018273123 0.0012099774 -0.03146933 0.03672094 0.017489098
0.011399555 0.0111837275 -0.016458692 0.07054956 -0.009172614 0.0076341126 -0.041619223 0.030263996
0.15026674 0.002921125 -0.10193835 -0.01963295 -0.020620836 0.0066781 0.0027974197 0.002329407
-0.026793743 -0.060288798 0.030177254 0.0032238 -0.08308502 -0.0832162 -0.061004464 -0.07176252
0.006033465 0.02718563 -0.09883371 -0.043294173 0.039132416 0.038815048 0.08189336 -0.03368325
-0.025907746 0.005330275 -0.0006020907 -0.050641105 0.008217647 -0.02327151 0.012005435 -0.031304676
-0.00382411 -0.029132528 -0.026723584 0.028183822 0.018701833 0.023432707 0.04048105 0.015729655

classifier.bias f4 [28]
00000000: b107 043c 068e c03c 87a1 8bbc 1216 4ebb
00000010: 0d96 f6bb 3ee7 a8bc def4 e0bb cf41 afbc
00000020: 8ce9 e63b 404e 55bc 8727 7b3c c6fc a9bc
00000030: f859 debb 0663 bfbb 7f64 b23c 4140 763c
00000040: 934f aa3c 0c69 803c 2250 87bc 2322 b3bc
00000050: 1510 86bc 2676 253c e1dc 9c3c 4e1e 803b
00000060: 7b8d 0a3c d6ef 75bc e491 ed3b 5dcf ad3c
0.008058474 0.023505222 -0.017044796 -0.003144626 -0.0075252117 -0.020618077 -0.006865128 -0.021393685
0.007046884 -0.013019145 0.015329248 -0.020750415 -0.0067856275 -0.005840662 0.021776436 0.015029968
0.020789897 0.01567509 -0.016517702 -0.021866864 -0.01636509 0.01009897 0.019148292 0.0039098626
0.008456583 -0.015010795 0.0072500575 0.021217043
