logs/tabular-Linear/CAL500/256/pa/0.01/checkpoint/CAL500_256_pa_0.01.pth (torch, 49626 bytes, 2 tensors)

classifier.weight f4 [174, 68]
0.05131212 0.0007859336 0.014701953 0.029612424 0.003045051 -0.051979505 0.03585369 0.075163044
-0.02705949 -0.023724658 -2.2120992e-05 0.09238829 -0.03683133 0.068881124 -0.033707004 -0.0041611395
0.0039295857 0.035672747 0.027106525 0.0148624135 0.03126119 -0.006652504 0.03203116 0.0014439204
-0.0243172 -0.0012386038 -0.009118906 0.009410176 -0.0010695662 -0.06255337 -0.04003819 0.0026171834
0.0026496514 -0.004466371 0.07451341 0.03877421 0.022616498 0.0028789125 -0.030064026 0.04181965
0.0003149395 -0.010012562 -0.0002988322 -0.042227138 -0.028182017 -0.0066435505 -0.057642918 -0.054173477
-0.036767982 -0.01201545 -0.026186889 -0.0077531985 -0.005714943 -0.022247272 0.021051064 -0.04794048
0.016288592 -0.027583608 -0.041151132 -0.0022444527 -0.06577303 0.022535788 -0.0052719773 -0.05564503
-0.05169098 -0.03901075 -0.023131764 -0.015266279 -0.037162907 0.004690519 -0.002353585 -0.010869933
-0.00794437 0.03662537 0.012385768 -0.015579599 0.02421342 0.018187 -0.030486926 -0.055346448
0.008654888 -0.05696377 -0.035412114 -0.025861261 -0.04718124 -0.028210953 -0.022342267 -0.009165184
-0.047736034 -0.0015146084 0.006717441 0.012954556 0.004964681 -0.0066927914 -0.002986963 -0.0050309026
-0.0011085706 0.015949905 4.4091088e-05 -0.0046760775 0.008337585 0.0014407542 -0.033720385 0.0006708824
-0.01993844 -0.0055588568 -0.0060117887 -0.0070208614 0.011861475 0.009886884 0.013353332 0.04344324
0.004488416 -0.0008461375 0.053275876 0.027448364 -0.0028353506 0.015648361 0.018816123 0.010350138
0.023363855 0.0060012676 -0.01664369 0.026167095 -0.024019526 0.029258125 0.008356909 0.020131204
0.035925128 0.010932601 -0.027473502 0.034914684 0.019496491 0.002739528 0.024952333 0.0037896761
0.043338563 0.030475661 0.02886312 0.0068580424 0.05833178 -0.058084905 0.004007303 -0.039177064
-0.028919328 -0.0037532807 0.0325291 0.011672156 0.015287158 -0.0026180432 0.009182987 -0.030405197
-0.028443227 0.03481464 0.035161614 0.02258871 -0.0013408145 -0.0036756678 -0.012782844 0.007875233
-0.0051511256 0.003784871 0.00037565178 0.020053599 -0.00980244 -0.00051395583 0.01790825 0.0074300733
0.023276588 0.035895597 0.028168218 0.018023461 -0.015324114 0.004671732 -0.0030891884 -0.006010548
0.015950851 -0.0010813996 0.00027962157 -0.027178131 0.0042838226 -0.01060402 -0.06143587 -0.018937295
-0.018013297 -0.0012236625 0.0031295957 -0.0071862834 0.0017316579 -0.01739342 -0.016288927 -0.027125964
0.0029916987 0.010884925 -0.00924215 0.010449092 -0.03667728 0.018828727 -0.02149102 -0.020069735
-0.011047688 -0.008420861 0.013982865 0.034737863 -0.05591724 -0.04596337 -0.041350115 -0.034586236
-0.059213873 0.048365366 0.03822521 0.011281376 0.02764692 0.038360976 -0.038331367 0.014298441
-0.021996781 -0.009491075 0.026801508 0.044485964 0.0402703 -0.019758046 -0.022169901 -0.008298865
-0.03203167 0.0046109445 0.025248973 -0.013264233 0.013288597 0.0022343218 0.0070972773 0.028843252
0.0042594136 -0.0075839376 -0.0056630764 0.010186442 -0.011341504 -0.013454464 -0.014864661 -0.019530922
-0.022472907 0.0007160016 -0.002943421 -0.002920148 -0.025167175 0.0147485165 -0.0050177197 0.021084897
0.055703532 -0.004571631 0.061449397 0.029340427 -0.002077487 0.0056732297 -0.0005706746 0.041547492
00000000: a82c 523d 1c07 4e3a 76e0 703c c195 f23c
00000010: 7a8f 473b 76e8 54bd 52db 123d 15ef 993d
00000020: ddab ddbc 375a c2bc 7890 b9b7 1236 bd3d
00000030: 73dc 16bd 8c11 8d3d 5b10 0abd 2b5a 88bb
00000040: c1c3 803b 961d 123d 810e de3c 7b81 733c
00000050: bc0b 003d 40fd d9bb 1b33 033d ee41 bd3a
00000060: dd34 c7bc a658 a2ba 7767 15bc 242d 1a3c
00000070: b030 8cba fb1b 80bd 16ff 23bd 0d85 2b3b
00000080: c6a5 2d3b a35a 92bb 7d9a 983d b5d1 1e3d
00000090: 3c46 b93c 23ac 3c3b d548 f6bc 154b 2b3d
000000a0: 771e a539 bb0b 24bc 94ac 9cb9 5df6 2cbd
000000b0: f9dd e6bc 24b2 d9bb fb1a 6cbd 02e5 5dbd
000000c0: 069a 16bd 73dc 44bc e385 d6bc 8b0e febb
000000d0: 6b44 bbbb e93f b6bc 4873 ac3c 3d5d 44bd
000000e0: a76f 853c 05f7 e1bc 178e 28bd ab17 13bb
000000f0: 03b4 86bd f99c b83c 8dc0 acbb 0bec 63bd
00000100: ecb9 53bd bcc9 1fbd d37e bdbc 6a1f 7abc
00000110: 2238 18bd edb2 993b 9b3e 1abb ce17 32bc
00000120: 1a29 02bc 7c04 163d aded 4a3c 9341 7fbc
00000130: 395b c63c e7fc 943c b8bf f9bc f5b2 62bd
00000140: 3bcd 0d3c d852 69bd 4b0c 11bd ffda d3bc
00000150: 1e41 41bd a81a e7bc 2107 b7bc 9129 16bc
00000160: dc86 43bd d385 c6ba fb1d dc3b 593f 543c
00000170: c3ae a23b 344f dbbb ecc0 43bb 45da a4bb
00000180: 754d 91ba 60a9 823c 72ee 3838 c839 99bb
00000190: 5e9a 083c b0d7 bc3a 631e 0abd 28de 2f3a
000001a0: f055 a3bc 1227 b6bb 8afe c4bb 410f e6bb
000001b0: a256 423c 99fc 213c efc7 5a3c 8af1 313d
000001c0: 9013 933b 54cf 5dba ce37 5a3d 64db e03c
000001d0: 4ad1 39bb fe30 803c 4524 9a3c a093 293c
000001e0: 8e65 bf3c 48a6 c43b 5958 88bc 605c d63c
000001f0: 99c4 c4bc bcae ef3c 6beb 083c 32ea a43c
00000200: 3a26 133d a71e 333c 1c10 e1bc b302 0f3d
00000210: 1bb7 9f3c a789 333b d668 cc3c 375c 783b
00000220: c783 313d 18a8 f93c 5a72 ec3c 6eb9 e03b
00000230: 4eed 6e3d 70ea 6dbd b24f 833b 2178 20bd
00000240: 3ae8 ecbc 9af9 75bb 3c3d 053d 923c 3f3c
00000250: fd76 7a3c 7a93 2bbb 3d74 163c 5214 f9bc
00000260: c501 e9bc cc99 0e3d a005 103d f50b b93c
00000270: 45be afba 79e3 70bb 226f 51bc 1f07 013c
00000280: c6ca a8bb 990b 783b 21f3 c439 7247 a43c
00000290: 6a9a 20bc feba 06ba 53b4 923c f977 f33b
000002a0: 8bae be3c 4307 133d 09c1 e63c f0a5 933c
000002b0: fe11 7bbc 5415 993b fb73 4abb 22f4 c4bb
000002c0: 5cab 823c c0bd 8dba 2c9a 9239 aca4 debc
000002d0: 4f5f 8c3b 7cbc 2dbc 2ea4 7bbd 6322 9bbc
000002e0: 9f90 93bc 4d63 a0ba e719 4d3b ea7a ebbb
000002f0: ccf8 e23a a57c 8ebc 5b70 85bc 4537 debc
00000300: 6010 443b af56 323c 636c 17bc ab32 2b3c
00000310: ea3a 16bd b43e 9a3c f00d b0bc 4969 a4bc
00000320: 5d01 35bc a7f7 09bc 6318 653c 4a49 0e3d
00000330: 7a09 65bd 1644 3cbd bd5e 29bd 4caa 0dbd
00000340: 3f8a 72bd c31a 463d 0a92 1c3d 85d5 383c
00000350: cb7b e23c 6620 1d3d 5a01 1dbd 0244 6a3c
00000360: 9832 b4bc 7480 1bbc d68e db3c ea36 363d
00000370: 78f2 243d a0db a1bc a79d b5bc f6f7 07bc
00000380: a433 03bd 6817 973b efd6 ce3c 3a52 59bc
00000390: 6ab8 593c b36d 123b 4790 e83b af48 ec3c
000003a0: 8d92 8b3b ae82 f8bb 5491 b9bb 09e5 263c
000003b0: b7d1 39bc 1d70 5cbc e88a 73bc 50ff 9fbc
000003c0: 1a19 b8bc 0eb2 3b3a 69e6 40bb f45f 3fbb
000003d0: 642b cebc c3a3 713c af6b a4bb 3cba ac3c
000003e0: 6329 643d 9fcd 95bb 5db2 7b3d 565b f03c
000003f0: 7326 08bb 80e6 b93b 5399 15ba b42d 2a3d

classifier.bias f4 [174]
9.3611774e-08 -7.208945e-06 1.01191235e-05 -6.4585556e-06 -1.2519885e-06 -6.1608043e-06 -9.674012e-06 1.0477527e-06
3.0619335e-06 -5.859858e-06 -5.953649e-06 -4.489939e-06 -9.693319e-06 -4.733686e-07 2.0726836e-06 4.7586414e-06
5.8047135e-06 -8.250796e-06 1.4154191e-06 7.471149e-06 5.0128842e-06 6.165052e-06 -7.877503e-06 8.3295845e-06
5.7378625e-06 -4.9736655e-06 -5.5533433e-06 -8.3469837e-07 -3.2363282e-06 -2.6213443e-06 -2.2242101e-07 7.557608e-06
1.124987e-05 1.7597258e-06 8.745551e-06 -9.327103e-06 9.6631275e-06 5.08846e-06 1.0725087e-05 1.7192899e-06
2.1443527e-06 -6.764141e-08 9.973897e-06 9.514329e-06 6.6078514e-06 -2.7664764e-06 -9.200582e-06 2.2560776e-06
-2.7833119e-06 -8.9204616e-07 -6.9568005e-06 2.43104e-06 -9.831959e-06 -3.9132615e-06 5.3493363e-06 4.9097885e-06
6.2612376e-06 6.377028e-06 -7.983522e-06 -3.086585e-06 -4.40699e-06 -9.737515e-06 -7.592553e-08 -8.806857e-06
-8.337078e-06 2.2609704e-06 9.341665e-06 -8.38761e-06 -5.1283655e-06 -4.045691e-06 2.8349634e-06 -1.0876781e-05
9.311919e-06 -8.230081e-06 -1.0880547e-06 7.222087e-06 -1.1515777e-06 9.334005e-06 -4.9825207e-06 8.654928e-06
5.863073e-06 8.358195e-06 -4.6850687e-06 3.2645164e-07 5.6894214e-06 2.424584e-06 -9.818787e-06 -8.2417855e-06
7.1846143e-06 -9.812997e-06 -2.9120472e-06 2.4516391e-06 8.487749e-06 1.0758129e-05 8.123929e-06 1.372464e-06
-1.1356775e-05 1.0750672e-05 9.5533205e-06 -5.72613e-06 -8.590311e-07 -4.4972606e-07 -6.469331e-06 2.960594e-06
-7.978022e-07 -4.9649993e-06 -6.8025306e-06 -3.1551414e-07 -7.619614e-06 3.739522e-07 -7.389593e-06 -6.2705376e-06
1.8226375e-06 7.0553997e-06 4.182939e-06 -7.538815e-06 -1.934774e-06 8.904051e-06 -1.0671079e-05 9.238524e-06
-9.899485e-06 8.615488e-06 -2.0693994e-06 1.0800283e-05 4.3202317e-06 2.7403005e-06 -8.095715e-08 -8.942566e-06
8.147298e-06 1.565957e-06 -7.809225e-06 3.4191186e-07 4.981512e-06 -2.1371475e-06 1.0991676e-05 -8.328294e-06
6.4704036e-06 -5.139362e-06 -9.33365e-06 4.971038e-07 -3.0069923e-06 -2.782538e-06 -1.1106737e-06 -4.57411e-06
-2.1115318e-06 -8.397598e-06 2.062061e-06 -5.563174e-07 -9.640115e-06 -9.002592e-06 -8.218746e-06 -2.7248163e-06
9.288983e-06 1.0299935e-06 5.8448627e-06 7.813277e-07 -3.9003683e-07 1.6056321e-06 -5.7284224e-06 1.12266025e-05
-3.1605434e-06 -7.2159232e-06 5.91897e-06 -4.8998686e-06 9.289009e-06 8.975815e-06 8.166691e-06 5.5771106e-06
1.0678222e-06 -5.945108e-06 4.0732248e-06 -1.7546972e-06 -2.6806013e-06 9.781844e-06
00000000: 9e07 c933 5ee4 f1b6 4ec5 2937 92b6 d8b6
00000010: ff09 a8b5 e8b8 ceb6 914d 22b7 82a0 8c35
00000020: 9e7b 4d36 cc9f c4b6 75c5 c7b6 48a8 96b6
00000030: 7da0 22b7 4923 feb4 6f18 0b36 6bac 9f36
00000040: 1cc6 c236 e66c 0ab7 6ef9 bd35 aeb0 fa36
00000050: 5934 a836 65dd ce36 9e29 04b7 4bbf 0b37
00000060: dd87 c036 76e3 a6b6 db56 bab6 0910 60b5
00000070: b22f 59b6 5aea 2fb6 9fd2 6eb4 5c97 fd36
00000080: d3bd 3c37 b82f ec35 dbb9 1237 9a7b 1cb7
00000090: d11e 2237 8abd aa36 e6ef 3337 5ac2 e635
000000a0: b3e7 0f36 4242 91b3 9055 2737 bb9f 1f37
000000b0: 03b9 dd36 b4a7 39b6 335c 1ab7 1e67 1736
000000c0: efc8 3ab6 f274 6fb5 766e e9b6 f324 2336
000000d0: f1f3 24b7 a94e 83b6 737e b336 c3be a436
000000e0: 9f17 d236 41fa d536 f7f0 05b7 2023 4fb6
000000f0: c1df 93b6 4f5e 23b7 800c a3b3 2ac1 13b7
00000100: 7adf 0bb7 2dbb 1736 25ba 1c37 83b8 0cb7
00000110: 5314 acb6 39c0 87b6 4d40 3e36 6b7b 36b7
00000120: 633a 1c37 ee13 0ab7 4609 92b5 4155 f236
00000130: e98f 9ab5 3f99 1c37 872f a7b6 a234 1137
00000140: 6abb c436 2d3a 0c37 6f34 9db6 2c43 af34
00000150: c2e7 be36 09b6 2236 5ebb 24b7 3346 0ab7
00000160: 5e13 f136 80a2 24b7 976c 43b6 d786 2436
00000170: 9b66 0e37 d07d 3437 024c 0837 8135 b835
00000180: fa88 3eb7 c95d 3437 3347 2037 1523 c0b6
00000190: 2b98 66b5 e171 f1b4 2113 d9b6 9eae 4636
000001a0: 8d28 56b5 0599 a6b6 4b41 e4b6 ef63 a9b4
000001b0: fcab ffb6 99c3 c834 1ff4 f7b6 8267 d2b6
000001c0: 59a1 f435 6cbd ec36 2c5b 8c36 eef5 fcb6
000001d0: 2ad7 01b6 9c62 1537 ef07 33b7 29ff 1a37
000001e0: f715 26b7 3d8b 1037 03e0 0ab6 dd32 3537
000001f0: 82f6 9036 01e6 3736 aada adb3 0708 16b7
00000200: 61b0 0837 df2d d235 5e04 03b7 0290 b734
00000210: dd26 a736 ea6b 0fb6 e468 3837 c0b9 0bb7
00000220: 581c d936 c972 acb6 b997 1cb7 b770 0535
00000230: bccb 49b6 a4bb 3ab6 7512 95b5 4e7b 99b6
00000240: d7b3 0db6 69e3 0cb7 f061 0a36 d755 15b5
00000250: fbbb 21b7 d709 17b7 3fe3 09b7 fddb 36b6
00000260: e1d7 1b37 4f3e 8a35 fd1e c436 6ebc 5135
00000270: 4166 d1b4 1981 d735 c636 c0b6 e459 3c37
00000280: b919 54b6 4f20 f2b6 919b c636 8d69 a4b6
00000290: fdd7 1b37 d596 1637 ac03 0937 0423 bb36
000002a0: 1752 8f35 177c c7b6 bcac 8836 f082 ebb5
000002b0: 61e4 33b6 b31c 2437
