logs_goemotions/class8/goemotions/256/pa/0.01/checkpoint/goemotions_256_pa_0.01.pth (torch, 26354 bytes, 2 tensors)

classifier.weight f4 [8, 768]
-0.016616777 -0.017468318 0.0038827972 -0.017103976 -0.0053982395 0.012850552 -0.0006334438 -0.038082052
-0.046023156 0.011373401 0.04481352 -0.0035339363 -0.047719438 -0.00039877652 0.005469623 0.029104248
-0.0071699936 -0.016513268 -0.0044526123 0.015676564 0.0006617709 0.065095514 0.0026078096 -0.021714782
0.03897475 -0.042484026 -0.011907613 0.02462979 -0.024086311 -0.057110682 0.014885722 -0.002529362
-0.0013084409 0.016076645 -0.032216474 -0.01929664 -0.03844623 0.012216635 -0.0004770927 -0.0041056704
-0.01539142 -0.014251081 0.018453792 -0.020857893 0.0035217549 -0.010846813 0.020262087 0.028561901
-0.014014049 -0.03656788 -0.024813205 0.011934503 0.043535616 0.026919236 0.0075601204 0.0017035222
0.024448685 0.034575682 0.025102334 0.005062816 0.03040442 0.043781444 -0.024051094 0.034391362
-0.028136829 0.014042967 0.038590122 0.033523727 -0.027932923 -0.044915844 0.0027122644 0.022334035
0.0037899131 0.0145821385 -0.012359571 -0.006947611 0.029284952 -0.005882865 0.02057389 -0.011757256
-0.012591339 0.0028625515 -0.0069223917 0.016071383 -0.019531373 0.0050195693 -0.028761433 0.0319148
-0.0032659306 -0.014988739 0.022722559 0.008899197 -0.005386006 0.03687021 -0.055672206 -0.013394594
-0.026412407 0.02051741 0.021240124 -0.02803063 0.008830273 0.0065907366 0.0063285707 -0.0014330375
0.0026724213 -0.007110827 -0.06254838 -0.00905425 -0.007841099 0.015100093 0.0034936909 0.022433113
-0.016974904 0.00020349327 0.00010898858 -0.009456202 0.014730327 0.02609981 -0.006362095 0.005354962
-0.020794759 0.029981803 0.024534373 -0.05738672 -0.011450257 0.00863424 -0.0024178408 -0.0030664306
0.035936367 -0.006031893 0.002744137 0.0060008764 0.0017338706 -0.07134668 -0.01899227 0.01806682
0.026863255 0.0008527301 0.029623047 0.0035830685 0.009769515 -0.015493883 -0.0018934971 -0.037278373
0.016739525 -0.0030505934 0.0016242836 -0.042433836 -0.0045313356 0.011434218 -0.0056644557 -0.00072542415
0.02547878 0.026283199 0.02046536 -0.033257198 0.005973918 0.02307914 -0.04544479 -0.020048661
-0.028544242 0.028749976 0.03679257 0.030952493 0.018497728 0.026764533 -0.01748742 -0.018912854
0.00077321084 0.0059626643 -0.03283768 -0.022753695 0.0031561179 -0.01153489 0.04024407 -0.0109371375
-0.0028435418 -0.009821557 0.014135268 -0.012209296 -0.020681422 -0.013302698 0.011054835 -0.022796847
-0.029185899 0.005326207 0.030868717 8.2057435e-05 0.020549305 -0.025940143 -0.0098334905 0.015223742
0.005599353 -0.017509656 0.0074826996 -0.01079722 -0.038724378 0.003936883 -0.04088655 -0.019753518
-0.013440768 0.0074632256 -0.023019472 -0.013173733 -0.010575548 -0.010845998 0.0029762133 -0.014315104
0.04893493 0.009373583 -0.0070456173 0.06747408 0.014185199 -0.0074602314 -0.008044077 -0.0064271274
-0.015859863 0.009980122 -0.0004710404 -0.017234776 0.020332756 0.008838743 -0.027322615 -0.03676072
-0.02498799 -0.018396685 -0.011680237 -0.030840302 0.04346532 0.007459565 0.00062969397 0.015893266
-0.022212684 -0.0005529013 -0.025766738 -0.021650085 -0.027845317 -0.007223437 -0.026858583 -0.042308357
-0.06239719 0.008767151 -0.0012562418 -0.0071208277 0.005110537 -0.0335552 0.03186546 -0.02630266
-0.0019479208 0.0078567 0.015572919 -0.020599972 -0.007529826 -0.048696592 -0.034904372 -0.012796609
00000000: e81f 88bc b819 8fbc 8776 7e3b a31d 8cbc
00000010: b7e3 b0bb 1f8b 523c b20d 26ba edfb 1bbd
00000020: c782 3cbd 8057 3a3c 628e 373d 9d99 67bb
00000030: 7575 43bd e112 d1b9 863a b33b 086c ee3c
00000040: 44f2 eabb d546 87bc 38e7 91bb 236c 803c
00000050: b17a 2d3a cc50 853d c9e7 2a3b 33e3 b1bc
00000060: fda3 1f3d bb03 2ebd 2618 43bc 6ac4 c93c
00000070: a850 c5bc e4ec 69bd 3ee3 733c a7c3 25bb
00000080: fe7f abba 2bb3 833c 6cf5 03bd fd13 9ebc
00000090: cb79 1dbd 4828 483c 4c22 fab9 dc88 86bb
000000a0: 4b2c 7cbc 5e7d 69bc 682c 973c 2cde aabc
000000b0: 3ecd 663b d5b6 31bc adfc a53c a6fa e93c
000000c0: 2f9b 65bc 34c8 15bd 1045 cbbc ef88 433c
000000d0: 6752 323d bb85 dc3c e3ba f73b b848 df3a
000000e0: 9c48 c83c 3b9f 0d3d 69a3 cd3c fbe5 a53b
000000f0: b112 f93c 2c54 333d cd06 c5bc f5dd 0c3d
00000100: 357f e6bc 7914 663c ad10 1e3d 2d50 093d
00000110: 96d3 e4bc adf9 37bd 3fc0 313b def5 b63c
00000120: 3160 783b ece9 6e3c cc7f 4abc c9a8 e3bb
00000130: ffe6 ef3c 0cc5 c0bb 938a a83c 82a1 40bc
00000140: e74b 4ebc a599 3b3b 3bd5 e2bb 22a8 833c
00000150: 4200 a0bc 337b a43b 199d ebbc 18b9 023d
00000160: 3909 56bb 5493 75bc a924 ba3c f0cd 113c
00000170: 187d b0bb 3805 173d 8a08 64bd 0075 5bbc
00000180: d55e d8bc 2114 a83c c5ff ad3c 7ea0 e5bc
00000190: d9ac 103c 1bf7 d73b e65f cf3b c2d4 bbba
000001a0: ca23 2f3b f101 e9bb 5d19 80bd 4758 14bc
000001b0: f477 00bc 6166 773c 68f6 643b a6c5 b73c
000001c0: f40e 8bbc cf60 5539 cc90 e438 30ee 1abc
000001d0: 7857 713c 45cf d53c 1f79 d0bb ad78 af3b
000001e0: c559 aabc 669c f53c 4ffc c83c 560e 6bbd
000001f0: dc99 3bbc a176 0d3c a374 1ebb 2bf6 48bb
00000200: 0332 133d 30a7 c5bb fbd6 333b 00a3 c43b
00000210: 0b43 e33a 351e 92bd ad95 9bbc de00 943c
00000220: 5410 dc3c c089 5f3a 08ac f23c ead1 6a3b
00000230: 5110 203c 0eda 7dbc 382f f8ba 35b1 18bd
00000240: 5421 893c 77ec 47bb eae5 d43a 1acf 2dbd
00000250: 997b 94bb 9656 3b3c e69c b9bb 642a 3eba
00000260: e0b8 d03c dd4f d73c f8a6 a73c b338 08bd
00000270: dbc0 c33b 7710 bd3c 5124 3abd 173d a4bc
00000280: 9dd5 e9bc 1285 eb3c ceb3 163d 1590 fd3c
00000290: 8c88 973c 4b41 db3c c741 8fbc 21ef 9abc
000002a0: 4db1 4a3a 7462 c33b ce80 06bd f565 babc
000002b0: dfd6 4e3b d6fc 3cbc f7d6 243d ae31 33bc
000002c0: b75a 3abb 99ea 20bc 9c97 673c 8009 48bc
000002d0: 166c a9bc 8ff3 59bc 571f 353c 74c0 babc
000002e0: 4417 efbc 7687 ae3b 64e0 fc3c 4016 ac38
000002f0: 0457 a83c 6c80 d4bc a61c 21bc 016d 793c
00000300: c77a b73b 6970 8fbc 6f31 f53b d3e6 30bc
00000310: 749d 1ebd f800 813b a878 27bd 21d2 a1bc
00000320: ab36 5cbc 138e f43b 5593 bcbc a4d6 57bc
00000330: 1045 2dbc 6ab3 31bc 930c 433b e689 6abc
00000340: fe6f 483d a893 193c ecde e6bb da2f 8a3d
00000350: 0969 683c f574 f4bb 4ecb 03bc a79a d2bb
00000360: 8bec 81bc aa83 233c f9f5 f6b9 f22f 8dbc
00000370: e190 a63c 60d0 103c add3 dfbc 6992 16bd
00000380: 9db3 ccbc a5b4 96bc 775e 3fbc cda4 fcbc
00000390: b108 323d 5e6f f43b 0c12 253a 9832 823c
000003a0: 60f7 b5bc 94f0 10ba c414 d3bc 855b b1bc
000003b0: dd1b e4bc 95b2 ecbb 8806 dcbc 874b 2dbd
000003c0: 3294 7fbd 19a4 0f3c 7ba8 a4ba d555 e9bb
000003d0: 4b76 a73b 2d71 09bd 5b85 023d ad78 d7bc
000003e0: 6051 ffba 63b9 003c 8e25 7f3c 46c1 a8bc
000003f0: c2bc f6bb 1476 47bd e3f7 0ebd dea8 51bc

classifier.bias f4 [8]
-0.00026947743 -0.0013345956 0.00043581403 -0.0016322032 0.0014593276 0.00080344646 0.00061446335 -0.0011341665
00000000: a648 8db9 99ed aeba f87d e439 a7ef d5ba
00000010: e946 bf3a 619e 523a f013 213a 50a8 94ba
