logs/tabular-Linear/emotions/256/pa/0.01/checkpoint/emotions_256_pa_0.01.pth (torch, 3366 bytes, 2 tensors)

classifier.weight f4 [6, 72]
0.20712672 0.016125223 0.17599024 0.5190183 -0.29362974 -0.06204351 -0.15918544 0.07354231
-0.16571708 0.11997424 0.07044081 0.06588371 -0.0678244 -0.034122217 0.113481835 -0.09732496
-0.10153429 0.06913565 0.096890345 -0.22132999 0.03101921 -0.026690073 -0.248535 -0.025086777
-0.07435259 -0.011152504 -0.06721537 -0.008915223 0.050043594 -0.039053295 0.14222448 0.1264629
0.14799991 -0.004341541 0.1708532 0.3000392 0.06563015 0.03410819 -0.085764915 -0.06644495
-0.14606191 -0.005385124 -0.1361995 0.020245241 -0.07508984 -0.12328316 -0.07390398 -0.18369597
-0.2731749 -0.079337545 0.11424404 -0.05265941 0.064592816 -0.20553608 -0.16505893 0.14396295
-0.024727829 -0.022596959 -0.00043311907 0.05322132 0.08624385 0.07696861 -0.11709253 -0.13376246
0.043442853 -0.09713502 0.01762107 0.031244738 0.1954489 0.06648894 -0.12654743 0.1766613
0.17258558 -0.238452 0.22878942 0.19031183 -0.24050975 -0.11692286 0.15551545 -0.33238918
-0.10811811 -0.04137912 0.038325828 -0.109200954 -0.14923766 -0.024185464 0.10587998 -0.07721104
0.047255535 -0.10963938 0.089220576 0.2160445 -0.197242 -0.14848542 -0.14446639 -0.23708673
0.24293092 0.17282546 -0.0807547 -0.06980593 0.041299157 0.11771329 0.09233573 -0.06116704
-0.21610019 0.17242262 -0.031721655 0.42600778 -0.250843 -0.059008963 0.10699668 -0.087061904
-0.001599331 -0.0716997 0.11551422 0.12960604 -0.32014653 -0.11255038 0.009713428 -0.2053105
-0.022297535 0.020652274 -0.024780134 -0.016047431 -0.09393142 0.007152491 -0.030509276 -0.14539593
-0.008751963 0.04608581 -0.17474294 0.13181826 0.22183803 0.116261594 0.14373997 0.015151335
-0.10600442 0.016091956 -0.16559961 0.10822448 0.08763825 0.3666395 0.015457175 0.119447485
-0.15139326 -0.13506176 -0.32276073 -0.37749633 0.34570625 -0.34870586 -0.030523019 -0.0018642718
0.14035912 -0.123320125 -0.14991747 0.015187139 -0.0805245 0.04407077 -0.08771088 0.00077164423
0.008230678 0.00081711984 0.12296697 0.22689605 0.035047043 0.12871352 0.1932815 -0.20003952
0.00046374177 0.0637107 0.04349541 0.2903199 -0.024344157 0.07203093 -0.011590868 0.07649913
-0.06099344 0.20654057 -0.28271547 0.07270994 -0.123459086 0.08445825 0.30030677 0.1421733
0.002640091 0.0077204914 -0.086450025 0.0349456 0.03126649 0.06636206 0.026074192 0.069716625
-0.03165678 0.05043202 -0.09140554 0.097128555 -0.09984599 -0.025949275 -0.04644389 -0.21509524
0.07890089 0.10415592 0.032924555 -0.0798063 -0.0988002 -0.055027567 0.094069965 0.055316113
-0.25401232 0.10660339 -0.042601418 -0.083940536 -0.07294289 0.17042246 -0.20220456 0.023874892
-0.18016729 -0.21977991 -0.2391042 -0.3735763 0.34836555 0.27091295 0.08087943 0.16805665
0.18335779 -0.0076610576 0.049924865 -0.0538196 0.11519808 0.15676057 -0.11465469 0.11740339
-0.14539148 -0.17872868 -0.11528022 -0.1094523 0.004839394 -0.0963464 -0.0008513693 -0.025353206
-0.06869632 -0.001915081 -0.06907116 -0.057759244 -0.15316218 -0.106807575 -0.12717271 0.03604103
0.018293655 0.067952484 -0.14447737 -0.095920816 0.15792058 -0.052012317 0.15322638 0.04442816
00000000: 0719 543e 0b19 843c c936 343e 62de 043f
00000010: a356 96be 5621 7ebd 8201 23be 5a9d 963d
00000020: bdb1 29be 0eb5 f53d 4543 903d 0aee 863d
00000030: 85e7 8abd bdc3 0bbd 2a69 e83d 4f52 c7bd
00000040: 36f1 cfbd fe96 8d3d 726e c63d 54a4 62be
00000050: 001c fe3c 24a5 dabc f67f 7ebe c982 cdbc
00000060: 2c46 98bd feb8 36bc 36a8 89bd 2811 12bc
00000070: 83fa 4c3d 59f6 1fbd 4ba3 113e 7e7f 013e
00000080: 4a8d 173e 7c43 8ebb 24f4 2e3e bd9e 993e
00000090: 1a69 863d 08b5 0b3d 84a5 afbd 4a14 88bd
000000a0: 4191 15be b275 b0bb e277 0bbe 59d9 a53c
000000b0: b4c8 99bd e27b fcbd f85a 97bd cc1a 3cbe
000000c0: 95dd 8bbe b97b a2bd c7f8 e93d 65b1 57bd
000000d0: 3d49 843d 0d78 52be 3505 29be 066b 133e
000000e0: 0492 cabc 421d b9bc 4214 e3b9 99fe 593d
000000f0: 9ea0 b03d b8a1 9d3d 35ce efbd 07f9 08be
00000100: 22f1 313d baee c6bd 105a 903c f7f4 ff3c
00000110: c223 483e 5a2b 883d a695 01be b3e6 343e
00000120: 46ba 303e c32c 74be c647 6a3e 1be1 423e
00000130: 3048 76be 4175 efbd 713f 1f3e ea2e aabe
00000140: 076d ddbd 277d 29bd 8bfb 1c3d c0a4 dfbd
00000150: c2d1 18be 9820 c6bc 9ad7 d83d d220 9ebd
00000160: 058f 413d 9c8a e0bd 47b9 b63d c53a 5d3e
00000170: cff9 49be 900c 18be ffee 13be ddc6 72be
00000180: e2c2 783e 28f9 303e b862 a5bd 69f6 8ebd
00000190: 4e29 293d aa13 f13d 841a bd3d 4a8a 7abd
000001a0: 5e49 5dbe 8e8f 303e 91ee 01bd b11d da3e
000001b0: 7e6e 80be 62b3 71bd 1321 db3d 834d b2bd
000001c0: a5a0 d1ba 4bd7 92bd b892 ec3d 72b7 043e
000001d0: 3fea a3be d080 e6bd 1225 1f3c ea3c 52be
000001e0: 52a9 b6bc f52e a93c b5ff cabc e775 83bc
000001f0: 1e5f c0bd 715f ea3b 97ee f9bc ace2 14be
00000200: 6564 0fbc 79c4 3c3d d0ef 32be 5efb 063e
00000210: 8229 633e 8f1a ee3d 9230 133e 4e3d 783c
00000220: d818 d9bd 47d3 833c f292 29be cca4 dd3d
00000230: af7b b33d 2cb8 bb3e 1740 7d3c e2a0 f43d
00000240: d606 1bbe a14d 0abe e540 a5be 3347 c1be
00000250: 6900 b13e 9389 b2be 690b fabc 955a f4ba
00000260: 4dba 0f3e 438f fcbd f783 19be 7ad3 783c
00000270: 07ea a4bd 8d83 343d c3a1 b3bd 2b48 4a3a
00000280: f7d9 063c fc33 563a 1bd6 fb3d 7057 683e
00000290: 7d8d 0f3d 7acd 033e 96eb 453e 29d7 4cbe
000002a0: 5e22 f339 c17a 823d 3e28 323d cfa4 943e
000002b0: 666d c7bc f484 933d a0e7 3dbc 93ab 9c3d
000002c0: 42d4 79bd 5f7f 533e 15c0 90be f3e8 943d
000002d0: 1ed8 fcbd 72f8 ac3d cfc1 993e e195 113e
000002e0: 6105 2d3b 2dfc fc3b b60c b1bd 1e23 0f3d
000002f0: 4b11 003d d5e8 873d 8b99 d53c 97c7 8e3d
00000300: 8aaa 01bd ce91 4e3d d432 bbbd 56eb c63d
00000310: 0e7c ccbd 9393 d4bc f33b 3ebd ed41 5cbe
00000320: ca96 a13d b34f d53d e6db 063d 7c71 a3bd
00000330: c257 cabd 9664 61bd c1a7 c03d 2693 623d
00000340: e70d 82be e152 da3d d37e 2ebd 04e9 abbd
00000350: 1563 95bd 3a83 2e3e b60e 4fbe 4795 c33c
00000360: c67d 38be fc0d 61be bbd7 74be 6545 bfbe
00000370: f85c b23e 1ab5 8a3e 1da4 a53d 0b17 2c3e
00000380: 25c2 3b3e 9c09 fbbb 047e 4c3d f171 5cbd
00000390: f9ec eb3d d885 203e 14d0 eabd 3071 f03d
000003a0: 81e1 14be a704 37be 0918 ecbd 8728 e0bd
000003b0: c793 9e3b 4351 c5bd 6d2e 5fba 87b1 cfbc
000003c0: a8b0 8cbd 7503 fbba 2e75 8dbd f594 6cbd
000003d0: 8cd6 1cbe eebd dabd 9039 02be c29f 133d
000003e0: 93dc 953c ac2a 8b3d e0f1 13be 2272 c4bd
000003f0: efb5 213e de0a 55bd 60e7 1c3e 4dfa 353d

classifier.bias f4 [6]
5.660378e-06 -1.0721057e-05 2.0529876e-06 3.8889425e-06 -4.017157e-06 8.387373e-06
00000000: 47ee bd36 97de 33b7 0fc6 0936 c37d 8236
00000010: 1ecb 86b6 7eb7 0c37
