logs/tabular-Linear/yeast/256/pa/0.01/checkpoint/yeast_256_pa_0.01.pth (torch, 7444 bytes, 2 tensors)

classifier.weight f4 [14, 103]
0	0xbdc2187b	-0.094773255
1	0x3dd56ac9	0.10420758
2	0x3e04ab41	0.12955953
3	0xbda1cdbc	-0.07900569
4	0xbcd18a31	-0.02557859
5	0x3d9cabd3	0.0764996
6	0xbc2b3155	-0.010448773
7	0xbd29d391	-0.04146153
8	0xbc31ff62	-0.010864111
9	0xbc21ae14	-0.009868164
10	0x3b7e9cf5	0.0038850878
11	0xbd16e2e7	-0.036837485
12	0x3c59443f	0.0132609
13	0x3db2944f	0.08719694
14	0xbcae48fd	-0.021275038
15	0x3c47b809	0.0121898735
16	0xbc3ca976	-0.011515012
17	0xbd34bf9c	-0.044128045
18	0xbdb1d70b	-0.08683594
19	0x3e059bf5	0.13047774
20	0x3d987555	0.07444254
21	0xbd3b419d	-0.04571687
22	0xba9578ae	-0.0011403763
23	0xbcdd8cce	-0.02704468
24	0xbd723ea6	-0.059141777
25	0x3d9172c4	0.07101968
26	0xbddc13b0	-0.107459426
27	0xbba3cc77	-0.0049987393
28	0x3bc3e80c	0.00597859
29	0xbc201d56	-0.009772619
30	0xbce00248	-0.027344838
31	0x3d6b262a	0.057409443
32	0xbd5e17de	-0.05422198
33	0xbd929b09	-0.07158477
34	0xbd8e84eb	-0.06958946
35	0x3d9095b0	0.070598006
36	0x3e026cc4	0.12736803
37	0xbd4ff1ee	-0.05076783
38	0x3cfe2684	0.031024225
39	0x3dc27f65	0.09496955
40	0xbd8e2a3c	-0.06941649
41	0xbd1c7a00	-0.038202286
42	0x3d29ecf3	0.041485738
43	0xbcf5c19a	-0.029999543
44	0xbd514343	-0.051089536
45	0x3c179d8b	0.00925387
46	0xbc1d0d5d	-0.009585706
47	0xbc854e5f	-0.016272722
48	0x3d12818a	0.03576807
49	0xbca0e162	-0.01963872
50	0x3d5d35b1	0.054006282
51	0x3ce608bf	0.028080342
52	0x3d44a242	0.048006304
53	0x3b2b1a17	0.002610808
54	0x3c9ebb5a	0.019376446
55	0xbcc7b419	-0.02437787
56	0xbc84a9b3	-0.0161942
57	0xbd8f8c95	-0.07009236
58	0x3c9425de	0.018084463
59	0x3cb4a1fa	0.022049893
60	0x3cec20cd	0.028824234
61	0xbcb8da39	-0.022564994
62	0x3d0b220f	0.033968028
63	0xbd747049	-0.059677396
64	0xbd17b573	-0.037038278
65	0xbe6e1ab6	-0.23252377
66	0xbc574851	-0.0131398
67	0x3da0fae0	0.078603506
68	0x3da3c327	0.07996207
69	0xbcd38abc	-0.02582299
70	0xbcd56933	-0.02605114
71	0xbd114ea8	-0.035475403
72	0xbcdc2031	-0.026870819
73	0x3b4198df	0.002954058
74	0x3de423b3	0.111396216
75	0xbc8a1588	-0.01685597
76	0x3d349705	0.044089336
77	0x3d04113c	0.032243
78	0x3dd1ba3b	0.10240599
79	0x3cd85fe2	0.026412908
80	0xbcbc9c7f	-0.023023842
81	0x3dcbc7c7	0.09950214
82	0xbd79249a	-0.06082592
83	0x3dfe8db2	0.1242937
84	0xbd5d585c	-0.054039344
85	0xbc7852b9	-0.015156441
86	0x3cf0c79c	0.029392056
87	0x3e8956dd	0.26824084
88	0x3e2b3cc2	0.16722396
89	0xbc541999	-0.012945556
90	0xbc8cf7ec	-0.017208062
91	0xbe298dfe	-0.16558072
92	0x3cd408c8	0.025883093
93	0xbdd680f9	-0.10473818
94	0xbe0a6b4c	-0.13517493
95	0x3e3f8e46	0.18706617
96	0xbd223ef3	-0.039610814
97	0xbd933470	-0.07187736
98	0xbcb33970	-0.021877974
99	0x3cd8cd74	0.026465155
100	0x3d225443	0.03963114
101	0xbe3e8532	-0.18605497
102	0xbdbae279	-0.091252275
103	0x3c7cf649	0.015439578
104	0x3d6c0c76	0.05762907
105	0x3d70e1d3	0.058809113
106	0xbd056b63	-0.032573115
107	0xbd1522aa	-0.03641001
108	0xbd2f0faa	-0.042739548
109	0xbdfaecbb	-0.12252184
110	0xbd327532	-0.043568797
111	0xbdd2bc8b	-0.10289868
112	0x3c0a921b	0.008457686
113	0x3d0218e2	0.03176201
114	0x3db4dbcd	0.08830986
115	0x3d5a2463	0.053257357
116	0x3d36a77e	0.044593327
117	0x3c54adf9	0.012980931
118	0xbc866768	-0.01640673
119	0xbcf52ecb	-0.02992954
120	0xbd831a23	-0.064014696
121	0xbdcfd006	-0.10147099
122	0xbd247411	-0.040149752
123	0x3ca5e1b4	0.020249225
124	0xbd8482aa	-0.06470235
125	0x3d3b3f1b	0.04571448
126	0x3c2c00ed	0.010498268
127	0x3d5914e4	0.05299844
128	0xbca65897	-0.020305915
129	0xbd0bb57d	-0.034108628
130	0x3cc4e6a4	0.02403576
131	0x3ca8f9cf	0.02062693
132	0xbd452043	-0.04812647
133	0xbd5edb74	-0.054408506
134	0x3d51cfd1	0.05122358
135	0xbdbc7122	-0.09201266
136	0xbd07a5e7	-0.0331172
137	0xbd01a0d1	-0.031647507
138	0xbafe2174	-0.0019388632
139	0x3deeb4b8	0.11655563
140	0xbbee6138	-0.007274773
141	0x3cfdd2dc	0.030984335
142	0x3ce9b684	0.028529413
143	0xbda0949a	-0.078408435
144	0xbcd2c08e	-0.025726583
145	0xbcd0c123	-0.02548272
146	0xbd28dfe6	-0.04122915
147	0xbc0077aa	-0.00784103
148	0xbd29c0a0	-0.041443467
149	0xbdb81852	-0.08989014
150	0x3cf2017d	0.029541725
151	0x3cb547a6	0.022128891
152	0x3c9b0497	0.018923087
153	0x3d8cf955	0.06883494
154	0x3b4eec20	0.0031573847
155	0xbda0d3a9	-0.07852871
156	0xbd87bdc2	-0.0662799
157	0x3ccf45da	0.025301863
158	0xbd326f88	-0.043563396
159	0x3dbf3b5a	0.09337492
160	0xbbc9a087	-0.0061531696
161	0xbd072405	-0.032993335
162	0x3d0ff1cb	0.0351427
163	0x3d989c58	0.07451695
164	0x3d007aa1	0.031366948
165	0x3dbbd2d6	0.09171073
166	0xbd8f8e61	-0.070095785
167	0xbd09626c	-0.033541128
168	0xbdd2ddc3	-0.10296204
169	0xbd2dd2ff	-0.04243755
170	0x3e077190	0.13226914
171	0x3d56e247	0.05246189
172	0x3c66badb	0.014082636
173	0xbc36869f	-0.011140495
174	0xb95e775d	-0.00021216036
175	0xbc66f2b5	-0.014095952
176	0xbca8e03d	-0.020614738
177	0x3d9a52a5	0.075352944
178	0xbca86849	-0.02055754
179	0x3db8d5eb	0.090251766
180	0x3d3e438c	0.046451136
181	0x3d899fbf	0.06719922
182	0x3cdee55d	0.027208978
183	0xbbe9f066	-0.0071392534
184	0x3deb6fd7	0.11495941
185	0xbbae5e96	-0.005321334
186	0x3be16da2	0.0068795243
187	0x3d06f694	0.03295
188	0x3bfaf2c9	0.007658337
189	0xbd14ebc1	-0.036357645
190	0x3d7a31c5	0.06108262
191	0x3d003290	0.03129822
192	0xbdf3a1d4	-0.11896101
193	0xbcd1f90b	-0.025631448
194	0xbd719d64	-0.05898799
195	0xbd0aa25a	-0.033846237
196	0x3d16a336	0.036776744
197	0xbe411457	-0.18855415
198	0x3d10a611	0.035314623
199	0xbd2b4735	-0.041815955
200	0x3d095400	0.033527374
201	0xbce6a047	-0.028152598
202	0x3acf0172	0.0015793277
203	0x3d940eff	0.07229423
204	0xbe1490c3	-0.14508347
205	0x3d8f5fb4	0.07000676
206	0x3d6ec41d	0.058292497
207	0xbb856d27	-0.00407185
208	0xbe455ba3	-0.19273238
209	0xbcb11842	-0.021618012
210	0xbbbd583b	-0.00577834
211	0xbd3aae6e	-0.045576505
212	0xbdfaa002	-0.1223755
213	0xbbfef3ea	-0.0077805417
214	0xbd672ef2	-0.056441255
215	0x3d11af6c	0.035567686
216	0xbce34c19	-0.027746247
217	0x3db6918f	0.08914482
218	0x3d0904c7	0.03345182
219	0xbcf4b751	-0.029872568
220	0xbc69f4de	-0.014279572
221	0x3d495afd	0.04915904
222	0x3db07dfa	0.08617778
223	0xbd80ef17	-0.06295603
224	0x3dbb1414	0.09134689
225	0xbe029dde	-0.12755534
226	0x3acae9a2	0.0015481005
227	0x3bd52997	0.006505202
228	0x3dbe10ab	0.09280523
229	0x3d485950	0.0489133
230	0x3ccb3311	0.024804624
231	0xbc1f1985	-0.009710674
232	0x3d912bcb	0.07088431
233	0xbcbe332e	-0.023217764
234	0xba00f92c	-0.0004919942
235	0xbdae8fd7	-0.08523529
236	0xbcc13721	-0.023585858
237	0xbd83ee76	-0.06441967
238	0x3dae2383	0.08502867
239	0x3dcfc503	0.10144999
240	0x3da9c5cd	0.08289681
241	0xbd84e840	-0.06489611
242	0x3c47a98c	0.012186419
243	0xbda3d4c5	-0.07999567
244	0xbd98f6e7	-0.07468968
245	0x3abff067	0.0014643789
246	0xbbccfc32	-0.00625565
247	0x3d4ed69d	0.05049764
248	0xbdfc1bd5	-0.12309996
249	0xbbcac62c	-0.0061881747
250	0x3cb890fc	0.022530071
251	0xbcce7590	-0.025202543
252	0xbd30e1e8	-0.04318419
253	0xbb4eff0b	-0.0031585123
254	0x3d8fc01e	0.07019065
255	0x3daf23c7	0.08551746

classifier.bias f4 [14]
0	0x313a9c7e	2.7155518e-09
1	0xb0e30051	-1.6516514e-09
2	0x308f0beb	1.0408007e-09
3	0x315caefe	3.2113685e-09
4	0xb23caad5	-1.0981883e-08
5	0xb1ae5c41	-5.0745546e-09
6	0x319449dc	4.3157637e-09
7	0xb1290d85	-2.4600422e-09
8	0xb113ee59	-2.15268e-09
9	0xb11e10f7	-2.300167e-09
10	0xb1b51ad9	-5.2708455e-09
11	0x300a28b1	5.0261934e-10
12	0xb036d982	-6.652031e-10
13	0x325931ab	1.2642356e-08
