logs/tabular-Linear/scene/256/pa/0.01/checkpoint/scene_256_pa_0.01.pth (torch, 8660 bytes, 2 tensors)

classifier.weight f4 [6, 294]
-0.040774703 0.013655258 0.019155499 0.029551476 0.027684746 0.04456846 0.01909136 -0.08675671
-0.04314892 -0.027061604 -0.03915594 -0.09196204 -0.06533178 -0.016238661 0.015053385 -0.0045729936
-0.08867841 -0.023048433 0.0125606125 -0.07571027 -0.13001628 -0.011501351 0.008815576 0.01188291
0.09426338 0.11503266 0.036923148 0.019381002 0.0026733864 0.12823053 0.14407808 0.12358895
0.024031807 0.0823482 0.057861883 0.06993173 0.13521388 0.19269697 0.15295984 0.12707144
0.16115043 0.10005513 0.118389316 0.100497246 0.08070222 0.07783409 0.062426426 0.10900112
0.11052569 0.053060208 0.069667496 0.08871762 -0.023837786 -0.044667885 0.02018535 -0.011509153
-0.037615094 -0.010073312 0.017718105 -0.042918075 0.05121755 0.059195988 0.086972505 0.07237945
0.012413876 -0.022741737 -0.016917868 -0.0066372016 0.0132162 0.09044029 0.07293161 0.01084936
0.024247158 0.04818191 -0.1018347 -0.009167019 0.00103956 0.017658034 0.02703382 0.0343603
0.039775267 0.024266338 -0.026114205 0.0111041 -0.012676687 0.029341696 -0.009769769 0.02415667
-0.08785874 0.0052367845 -0.052345634 -0.0044284645 0.038334753 -0.074775144 0.033798993 0.061414808
0.034339156 0.017356636 -0.009193502 -0.015227764 -0.0060951747 -0.015772363 -0.027999587 -0.019235501
-0.06939398 -0.02737989 -0.07188555 -0.062535055 -0.08986941 -0.041240558 0.009908766 -0.006127956
-0.03176706 -0.032589722 -0.07410946 -0.055851586 -0.0065195295 0.032593925 -0.013320546 -0.062433314
-0.041352693 -0.08885546 0.010519191 -0.03542077 -0.041681163 -0.07529901 -0.02198741 -0.014992789
-0.0075064762 0.0058003655 -0.011517494 -0.071034394 -0.0067083286 -0.0006328107 0.024606138 0.06959186
0.017175186 -0.0017431511 -0.003299881 0.017600052 0.09716677 0.063996136 0.06725284 0.11049499
0.11926705 0.106179215 0.07338477 -0.11587607 -0.089980826 -0.09720818 -0.117875434 -0.06756871
-0.05650221 -0.09373016 0.02403392 -0.009479289 0.0006520304 -0.02046033 -0.030370725 -0.02992786
0.013545143 0.038018674 0.034985047 -0.030217981 0.02882664 -0.03650326 -0.023682546 0.04945183
-0.0014178723 0.047591407 0.04069375 0.12690498 0.011936084 0.020124998 -0.048820738 0.09322714
0.1436807 0.08327023 0.022306921 0.09554872 0.09990916 0.013059823 0.0465513 -0.023381943
0.02078797 0.016273782 0.08212467 0.011252393 -0.008085651 -0.021639224 -0.05299991 -0.10938056
-0.09910216 0.008927523 -0.028191308 -0.10553411 -0.06756204 -0.051066704 -0.03990585 -0.07227418
-0.069952965 -0.018938843 -0.10163289 -0.008179215 -0.028114757 -0.004309683 -0.023708439 0.00081789214
0.017961688 0.021038389 0.009201472 0.056767393 0.041710235 0.079194576 0.110356 0.08553744
0.060277987 -0.10455384 -0.06600268 -0.07103153 -0.00864121 -0.0010948317 -0.019767586 -0.015772637
-0.041014377 -0.090435795 -0.06779996 -0.025859535 -0.07912826 -0.10509012 -0.12972735 -0.12531933
-0.048162386 -0.01856534 -0.051944073 -0.045242917 -0.09059681 -0.0997091 -0.016144326 0.05582522
0.049541257 -0.0013988016 -0.027942797 -0.032431066 -0.014105103 0.11381711 0.07879107 0.045370694
-0.11449152 0.03936269 0.05912366 0.03423538 0.07254522 0.020682884 0.07797645 -0.01827886
00000000: 6003 27bd 4eba 5f3c feeb 9c3c f015 f23c
00000010: 1fcb e23c 6b8d 363d 7c65 9c3c 81ad b1bd
00000020: ecbc 30bd 4cb0 ddbc fb61 20bd 9856 bcbd
00000030: abcc 85bd f106 85bc 79a2 763c 0dd9 95bb
00000040: 079d b5bd 11d0 bcbc 07cb 4d3c fc0d 9bbd
00000050: fd22 05be 2a70 3cbc 356f 103c 89b0 423c
00000060: 290d c13d 3e96 eb3d ba3c 173d e8c4 9e3c
00000070: fb33 2f3b dd4e 033e 3489 133e 341c fd3d
00000080: 5ade c43c 2ca6 a83d 9500 6d3d 5e38 8f3d
00000090: 8275 0a3e 5b52 453e 81a1 1c3e 041f 023e
000000a0: 9e04 253e b4e9 cc3d 1976 f23d 80d1 cd3d
000000b0: 3547 a53d 7b67 9f3d dab2 7f3d fb3b df3d
000000c0: 4b5b e23d a955 593d d5ad 8e3d 95b1 b53d
000000d0: 7647 c3bc acf5 36bd bf5b a53c e390 3cbc
000000e0: 4912 1abd 880a 25bc 8f25 913c ddca 2fbd
000000f0: 7ec9 513d 7e77 723d a41e b23d ad3b 943d
00000100: 9263 4b3c e14c babc 5797 8abc e27c d9bb
00000110: c388 583c c238 b93d 2b5d 953d 84c1 313c
00000120: faa1 c63c 655a 453d b68e d0bd 4431 16bc
00000130: d841 883a 95a7 903c 0876 dd3c 63bd 0c3d
00000140: 64eb 223d 33ca c63c 75ed d5bc f9ed 353c
00000150: e1b1 4fbc ff5d f03c 6211 20bc 35e4 c53c
00000160: 48ef b3bd 5599 ab3b 6068 56bd a71c 91bb
00000170: e704 1d3d b623 99bd d070 0a3d 188e 7b3d
00000180: 37a7 0c3d 812f 8e3c 58a0 16bc df7d 79bc
00000190: 08ba c7bb 0b35 81bc 645f e5bc c593 9dbc
000001a0: 6e1e 8ebd cb4b e0bc bb38 93bd 6112 80bd
000001b0: 740d b8bd dceb 28bd 6058 223c 05cd c8bb
000001c0: 2d1e 02bd cd7c 05bd b3c6 97bd a2c4 64bd
000001d0: c7a1 d5bb 3581 053d 6b3e 5abc 13ba 7fbd
000001e0: 7161 29bd daf9 b5bd af58 2c3c 5f15 11bd
000001f0: deb9 2abd 5e36 9abd f11e b4bc 51a4 75bc
00000200: e3f8 f5bb fe10 be3b dfb3 3cbc 7b7a 91bd
00000210: 8ad1 dbbb 35e3 25ba d092 c93c 2d86 8e3d
00000220: fab2 8c3c 727a e4ba d142 58bb fc2d 903c
00000230: 5fff c63d 6810 833d dbbb 893d 334b e23d
00000240: 4842 f43d 7d74 d93d c14a 963d 6f50 edbd
00000250: de47 b8bd 1515 c7bd ad68 f1bd 7761 8abd
00000260: dd6e 67bd 99f5 bfbd c9e2 c43c 054f 1bbc
00000270: 05ed 2a3a 6c9c a7bc 07cc f8bc 452b f5bc
00000280: 73ec 5d3c 78b9 1b3d 7b4c 0f3d b38b f7bc
00000290: d925 ec3c 7184 15bd e601 c2bc 018e 4a3d
000002a0: e6d7 b9ba 35ef 423d 7dae 263d 61f3 013e
000002b0: 918f 433c 2edd a43c 41f8 47bd dfed be3d
000002c0: 0921 133e 9589 aa3d 01bd b63c 0caf c33d
000002d0: 2c9d cc3d def8 553c 93ac 3e3d 7d8b bfbc
000002e0: 884b aa3c 9850 853c fb30 a83d f55b 383c
000002f0: ae79 04bc be44 b1bc 6f16 59bd ea02 e0bd
00000300: 13f6 cabd bf44 123c 75f1 e6bc 4422 d8bd
00000310: f85d 8abd 522b 51bd 5174 23bd 7c04 94bd
00000320: 8043 8fbd a225 9bbc e824 d0bd 1d02 06bc
00000330: eb50 e6bc 3e38 8dbb 3338 c2bc d067 563a
00000340: 6424 933c b358 ac3c c5c1 163c ed84 683d
00000350: 5ad8 2a3d c430 a23d 5402 e23d 412e af3d
00000360: 0de6 763d 5320 d6bd 6a2c 87bd fb78 91bd
00000370: dd93 0dbc 7580 8fba a2ef a1bc 9e35 81bc
00000380: b1fe 27bd 6736 b9bd b5da 8abd 60d7 d3bc
00000390: ff0d a2bd 7d39 d7bd 3fd7 04be b653 00be
000003a0: ec45 45bd 5716 98bc 4fc3 54bd a350 39bd
000003b0: d28a b9bd 4934 ccbd 1b41 84bc fca8 643d
000003c0: c6eb 4a3d fe57 b7ba 4be8 e4bc 70d6 04bd
000003d0: 1719 67bc f218 e93d 365d a13d 9fd6 393d
000003e0: 887a eabd c63a 213d a72b 723d 663a 0c3d
000003f0: 9792 943d 276f a93c 1eb2 9f3d 8cbd 95bc

classifier.bias f4 [6]
-2.1333537e-09 5.4977867e-10 -5.088641e-09 -8.040865e-10 2.7820426e-09 1.1145646e-09
00000000: 5b9a 12b1 3c1f 1730 29d8 aeb1 8f06 5db0
00000010: 362e 3f31 412f 9930
