logs/tabular-Linear/Image/256/pa/0.01/checkpoint/Image_256_pa_0.01.pth (torch, 7508 bytes, 2 tensors)

classifier.weight f4 [5, 294]
0	0xbe369e55	-0.17833836
1	0x3de36b11	0.11104406
2	0xbd5658a1	-0.052330617
3	0xbd97c45e	-0.07410501
4	0xbd4fe441	-0.05075479
5	0xbdb3284f	-0.08747923
6	0xbdae292c	-0.08503947
7	0xbbc7bc5b	-0.006095452
8	0xbd3a1061	-0.045425776
9	0x3ca34420	0.019929945
10	0xbdf9653b	-0.12177511
11	0xbd857985	-0.06517319
12	0xbe37cad6	-0.1794847
13	0x3d6c5d15	0.057705957
14	0xbd629aca	-0.0553234
15	0xbd8f9d38	-0.07012409
16	0x3daf1bad	0.085502006
17	0x3da364c2	0.079782024
18	0x3e1b8080	0.15185738
19	0x3d2c82b7	0.042116847
20	0x3e0bbf09	0.13647093
21	0xbdb09b45	-0.08623365
22	0x3e0c972c	0.13729542
23	0xbdee4282	-0.11633779
24	0x3d067e4e	0.032835297
25	0x3cef5d88	0.029219404
26	0xbd09890c	-0.033577964
27	0x3d92029d	0.07129405
28	0xbdd426fc	-0.10358998
29	0x3d8214b6	0.063516065
30	0x3c3f738d	0.011685264
31	0xbdd858d3	-0.10563817
32	0x3d5b23af	0.053500827
33	0xbd6c84b7	-0.057743754
34	0x3db72f3c	0.08944556
35	0xbcc39141	-0.023872973
36	0x3da510b2	0.08059825
37	0x3bc8f6f9	0.006132957
38	0x3cf010ce	0.029304888
39	0xbc7b5bbd	-0.015341696
40	0xbd748e73	-0.059706163
41	0xbba69489	-0.0050836247
42	0xbd449482	-0.04799319
43	0x3da6ce42	0.08144809
44	0x3db2bfd2	0.08727993
45	0xbb8adc38	-0.004237678
46	0x3d581369	0.052752886
47	0xbd99f78e	-0.075179204
48	0x3e1559f1	0.14585091
49	0xbd9fcec9	-0.07803113
50	0x3d611297	0.05494937
51	0xbdae7129	-0.08517677
52	0xbc0e40a3	-0.008682403
53	0xbd09caf0	-0.033640802
54	0xbd7f1887	-0.06227925
55	0x3d3d85ff	0.046270367
56	0x3c7122e3	0.01471779
57	0xbc97c838	-0.018528089
58	0x3d2d9a6f	0.042383607
59	0xbdba71c6	-0.09103732
60	0x3d723306	0.05913069
61	0xbe2432ac	-0.16034955
62	0x3e393d2e	0.18089744
63	0x3c99a672	0.018756125
64	0x3dfd1aab	0.12358602
65	0x3ccaf933	0.02477703
66	0x3d47fe9f	0.04882681
67	0x3d0fb443	0.03508402
68	0x3d0b1b8f	0.03396183
69	0xbd226a06	-0.039651893
70	0x3da73417	0.08164232
71	0xbd550999	-0.052011106
72	0x3dce0a8d	0.10060606
73	0xbdcbaaf9	-0.0994472
74	0xbcbedfe1	-0.023300113
75	0xbd8e2b0f	-0.069418065
76	0xbcc0cc5b	-0.023534944
77	0xbd2b0bf6	-0.041759454
78	0x3d4b3571	0.049611513
79	0x3cfebea5	0.031096766
80	0x3da542e3	0.08069398
81	0xbd7ad808	-0.06124118
82	0xbccc7c9a	-0.024961758
83	0xbde0a3ae	-0.109687194
84	0x3d97aab7	0.07405608
85	0xbdbbddb2	-0.091731444
86	0x3dbc7177	0.09201329
87	0xbcfd0bef	-0.03088948
88	0x3d2b6513	0.04184444
89	0xbdbea980	-0.09309673
90	0xbd0af205	-0.033922214
91	0xbe03fc09	-0.12889113
92	0x3da709cb	0.08156165
93	0xbd9d1a03	-0.07670977
94	0x3db82bba	0.08992715
95	0xbc982bda	-0.018575598
96	0x3b972569	0.004612614
97	0xbdee902d	-0.11648593
98	0xbe06c4d5	-0.13161023
99	0x3d6317fe	0.055442803
100	0xbdcf1c35	-0.10112802
101	0xbcd3a960	-0.0258376
102	0xbdfa254d	-0.12214146
103	0xbd1116f9	-0.0354223
104	0xbe2f1db7	-0.17101179
105	0x3d052f9a	0.0325161
106	0xbdc29ca1	-0.09502531
107	0x3d006727	0.031348374
108	0xbdee1908	-0.11625868
109	0x3d70a184	0.058747783
110	0xbdcf66d6	-0.10127036
111	0xbd9c12b2	-0.07620753
112	0x3d64d6a0	0.055868745
113	0xbd9acb39	-0.07558293
114	0x3dbc7121	0.09201265
115	0xbb85286c	-0.0040636566
116	0xbd2d0a25	-0.042246003
117	0xbd1187ed	-0.03553002
118	0xbdb34b98	-0.08754653
119	0x3cb09017	0.021553082
120	0x3d66f945	0.056390066
121	0xbd1b3af7	-0.03789803
122	0x3d304e34	0.04304333
123	0x3e1624bd	0.14662452
124	0x3b78ba3f	0.0037952808
125	0xbe15fa62	-0.14646295
126	0xbe003cec	-0.1252324
127	0x3cb7609d	0.022384936
128	0x3cb92ad6	0.022603434
129	0x3c41afaf	0.011821671
130	0xbce6b8a2	-0.028164212
131	0x3de9ef17	0.11422556
132	0xbd41132d	-0.047137428
133	0x3de428fa	0.11140628
134	0xbd0b7d90	-0.034055293
135	0x3d7b5ed9	0.06136975
136	0x3d5fe356	0.054660164
137	0xbdb023bd	-0.086005665
138	0xbc9fc7a2	-0.019504372
139	0x3be69b10	0.007037528
140	0xbce9b6fc	-0.028529637
141	0xbcb3e741	-0.021960856
142	0x3d980e7f	0.0742464
143	0xbda42494	-0.08014789
144	0xbcf5fcb4	-0.030027725
145	0xbdb271af	-0.0871309
146	0x3cd6a095	0.026199618
147	0xbb0365c9	-0.0020049682
148	0x3c8b7ef6	0.017028313
149	0x36fe3b13	7.576667e-06
150	0xbd9d7bde	-0.076896414
151	0xbe6e6ab4	-0.23282892
152	0xbe2af77f	-0.16695975
153	0xbe0a5168	-0.13507617
154	0xb94e0ee7	-0.00019651242
155	0x3c636200	0.0138783455
156	0x3daa80fb	0.08325382
157	0x3c8543e7	0.01626773
158	0x3e1615f9	0.1465682
159	0xbd9b7e9c	-0.07592508
160	0x3da71a98	0.08159369
161	0x3b655cf0	0.0034998022
162	0x3dedbf1e	0.11608718
163	0xbd0f640f	-0.035007533
164	0x3d8abc26	0.06774168
165	0xbd8b85bc	-0.06812617
166	0xbc6f710c	-0.014614355
167	0xbe055b15	-0.13023026
168	0x3d9628b0	0.07331979
169	0xbd7af789	-0.061271224
170	0x3d9a6423	0.07538631
171	0xbdbd44b3	-0.09241619
172	0xbc88185b	-0.016613176
173	0xbd1563c8	-0.036472112
174	0xbc524570	-0.012833938
175	0xbd986692	-0.07441439
176	0x3d8b1216	0.06790559
177	0xbdb9ec30	-0.09078252
178	0x3d9b50d3	0.07583775
179	0xbd856ca9	-0.06514866
180	0xbd1382c7	-0.03601339
181	0xbcca83ae	-0.024720993
182	0x3db08d2e	0.08620678
183	0xbde724c9	-0.11286313
184	0x3d786a56	0.060648285
185	0xbd21ad13	-0.039471697
186	0x3b6373ce	0.0034706476
187	0xbd61df58	-0.055144638
188	0x3c21cfa8	0.009876169
189	0xbd9b2613	-0.075756215
190	0x3d2bc3af	0.041934665
191	0xbdef0baf	-0.1167215
192	0x3d519696	0.051169
193	0xbd900479	-0.07032103
194	0x3d4d80c4	0.05017163
195	0xbdd8b748	-0.10581833
196	0x3de64fef	0.11245715
197	0xbd78f5b4	-0.060781196
198	0x3cb0e1b1	0.021591993
199	0xbd63c4a4	-0.055607453
200	0x3d5459df	0.05184352
201	0xbd0686c1	-0.032843355
202	0xbcd47a9f	-0.025937377
203	0x3d542da5	0.051801343
204	0x3d1963ca	0.037448682
205	0x3de6f5cc	0.11277351
206	0x3d821c47	0.0635305
207	0x3cb4ecbc	0.02208554
208	0x3e01fd8b	0.12694375
209	0x3d924fe8	0.07144147
210	0x3dd9b835	0.10630838
211	0x3ccdc6ef	0.025119273
212	0xbc397e5b	-0.011321629
213	0xbce6e253	-0.028184092
214	0xbdb17815	-0.08665482
215	0xbc416381	-0.011803509
216	0xbd995cad	-0.074883796
217	0xbe2089da	-0.15677586
218	0x3cf1d4a6	0.029520344
219	0xbe07612c	-0.13220662
220	0xbbca1407	-0.006166938
221	0x3c97134f	0.018441824
222	0x3dbe4e9c	0.09292337
223	0xbda4646f	-0.08026969
224	0x3c7590dc	0.01498815
225	0xbde46b5e	-0.11153291
226	0x3dab2b4d	0.08357868
227	0xbde464e9	-0.111520596
228	0x3bb98f8a	0.005662863
229	0x3e06f7d7	0.13180481
230	0xbdd1fd9b	-0.102534495
231	0x3db8cfff	0.09024047
232	0xbc8bbcbe	-0.017057773
233	0x3d91e839	0.07124371
234	0x3e37eac3	0.17960648
235	0xbc7a7e1b	-0.015288855
236	0x3c46a7f5	0.012125005
237	0xbd091291	-0.033464972
238	0xbbf8d4e8	-0.00759374
239	0xbdc389fd	-0.095478036
240	0xbd3e766a	-0.046499647
241	0xbc509e34	-0.012733031
242	0x3a677a37	0.0008830162
243	0xbc748283	-0.014923695
244	0xbc161625	-0.009160553
245	0xbd25aa2b	-0.040445488
246	0xbe025e73	-0.12731342
247	0xbd8f6457	-0.0700156
248	0xbc27eaea	-0.010248879
249	0x3d17d066	0.03706398
250	0x3d6d7b91	0.05797917
251	0xbcde5404	-0.027139671
252	0xbd890c27	-0.06691771
253	0x3bdcd05e	0.0067387065
254	0x3d6aa415	0.057285387
255	0x3d1095ae	0.035298996

classifier.bias f4 [5]
0	0x315b69e9	3.1928897e-09
1	0xb13daa8b	-2.7600062e-09
2	0x306837b0	8.4480245e-10
3	0xb10347ae	-1.9103754e-09
4	0xb1f480a3	-7.115959e-09
