logs/tabular-Linear/corel5k/256/pa/0.01/checkpoint/corel5k_256_pa_0.01.pth (torch, 749664 bytes, 2 tensors)

classifier.weight f4 [374, 499]
0	0xbb9bad99	-0.004750919
1	0xbb98864e	-0.0046546822
2	0xbbccbdba	-0.006248203
3	0xbc20acf4	-0.00980686
4	0xbc147308	-0.009060629
5	0xbc3c36d2	-0.01148768
6	0xbc31b1ef	-0.010845645
7	0xbc73e6b4	-0.014886547
8	0xbc0f13e3	-0.008732769
9	0x3c001aef	0.0078189215
10	0xbbacceba	-0.005273667
11	0xbbf23c69	-0.0073924554
12	0x3a6738b7	0.0008820402
13	0x3ccd95fe	0.025095936
14	0x3bd21dd6	0.006412248
15	0xbbbb0b66	-0.005708146
16	0xbc35868f	-0.011079445
17	0xbc343a46	-0.011000222
18	0xbbc882d0	-0.0061191097
19	0x3c166f42	0.009181799
20	0x3c23980d	0.009984982
21	0x3bfada88	0.0076554455
22	0xbc08c28a	-0.008347163
23	0xbc2d75e1	-0.010587187
24	0x3b61d02e	0.003445636
25	0x3ad9e5f6	0.001662432
26	0xbb1ad2ff	-0.0023624299
27	0xbbcebafc	-0.0063089114
28	0x3be9324c	0.0071165916
29	0x3c7afa1b	0.015318419
30	0x3851112f	4.9845487e-05
31	0x3c0fde6b	0.008781056
32	0x3cc10bfc	0.023565285
33	0xba87c2d2	-0.0010357744
34	0xbc154f12	-0.00911309
35	0x3b68bf08	0.0035514254
36	0xbc5b9d42	-0.013404192
37	0xbc2baf72	-0.010478841
38	0x3ab13ad7	0.0013521564
39	0xbb864f95	-0.0040988424
40	0xbc257e48	-0.010100909
41	0xbbe934ef	-0.007116906
42	0xbbd8e655	-0.0066192546
43	0xbc25dd7a	-0.010123605
44	0x3b441f5c	0.0029925918
45	0x3c0d74ab	0.008633773
46	0xbc01a483	-0.007912758
47	0xbb845227	-0.0040381136
48	0xbc08c395	-0.008347412
49	0xbbe3843f	-0.006943255
50	0xbc010ea4	-0.007877026
51	0x3ca259c7	0.0198182
52	0xbc3a5cca	-0.011374662
53	0xbc251296	-0.010075232
54	0xbbd84977	-0.0066005546
55	0xbb20fb4f	-0.0024563854
56	0xbbe28a1c	-0.0069134366
57	0xbc07347a	-0.0082522575
58	0xbc18ea2f	-0.0093331775
59	0x3b6ef425	0.003646144
60	0xba2603ca	-0.0006332962
61	0xbb9b437f	-0.004738271
62	0x3a924d99	0.0011162042
63	0xbb727831	-0.003699791
64	0x3b553abe	0.0032536234
65	0x3b8dd948	0.0043288805
66	0xbc2595fa	-0.010106558
67	0x3be22fbc	0.006902663
68	0xbbe5782e	-0.007002852
69	0x3b336f17	0.0027379447
70	0xbbf52732	-0.007481479
71	0x3b0ff81c	0.0021967953
72	0xbc129c3b	-0.008948381
73	0x3c2c99cf	0.010534718
74	0x3b37a96e	0.0028024572
75	0xbbdc289d	-0.0067187087
76	0xbc38cda6	-0.011279499
77	0x3c6fe891	0.0146428505
78	0xbc12c337	-0.008957676
79	0x3b840087	0.004028383
80	0xbc298043	-0.010345521
81	0x3c1ad461	0.009450049
82	0xba816d42	-0.000987448
83	0x3bce6e78	0.00629979
84	0xb9cd0bd8	-0.0003910947
85	0xbb910398	-0.0044254772
86	0x3b5e5c2a	0.0033929446
87	0xbbf9da25	-0.007624882
88	0x3a696d5d	0.0008904541
89	0xbb66617b	-0.0035153318
90	0xbc0a3378	-0.008435123
91	0xbc070a2b	-0.00824217
92	0x3bba5577	0.0056864577
93	0xb8d481da	-0.000101331345
94	0xba861712	-0.0010230264
95	0xbbdbd8ca	-0.006709193
96	0xbc17706b	-0.009243111
97	0x3b33ddf7	0.0027445534
98	0xbc03d495	-0.008046289
99	0xbc03609d	-0.00801864
100	0x3cbd38b1	0.023098322
101	0x3c44b1d3	0.012005287
102	0xbb97a793	-0.0046281307
103	0x3c4c75b3	0.012479234
104	0xbbdd0d81	-0.0067459946
105	0x3c77ec45	0.015132015
106	0xbb05eebd	-0.0020436489
107	0xbc09c070	-0.008407697
108	0xbb6f5b7b	-0.0036523032
109	0xbbb37dfd	-0.0054776655
110	0xbc1162e2	-0.008873673
111	0xbc16e747	-0.009210414
112	0xbbf99c25	-0.007617491
113	0xbbfdaf77	-0.0077418643
114	0xbc1b0ba9	-0.009463229
115	0x3bcfad0a	0.0063377665
116	0x3ab1d207	0.0013566621
117	0x3bc2bdba	0.0059430273
118	0xbc3e58a0	-0.0116178095
119	0xbbc84625	-0.0061118775
120	0xb9970bf5	-0.00028809873
121	0x3b7cdce6	0.0038583814
122	0xbbf30a59	-0.007417005
123	0x3c627310	0.013821378
124	0xbc2bfd23	-0.010497364
125	0xbc0aa88a	-0.008463034
126	0xbc2af568	-0.010434486
127	0xbc61b14e	-0.013775183
128	0xbbdd6c0b	-0.0067572645
129	0xbc2e0c29	-0.010623016
130	0xbaa3a53b	-0.0012485156
131	0xbc19159a	-0.009343529
132	0x3d2e2b49	0.04252175
133	0x3cfe9d3e	0.031080838
134	0xbc13e135	-0.0090258615
135	0xbbc7eafa	-0.0061010094
136	0xbc070965	-0.008241986
137	0x3c00e6b0	0.0078675
138	0x3cdfb944	0.027310021
139	0xbbc6d85c	-0.0060682725
140	0x3cc42074	0.023941256
141	0xbb8bfbef	-0.004271976
142	0xbc01e50f	-0.007928147
143	0x3c7ceb63	0.01543698
144	0x3c3f1611	0.011662976
145	0xbbcbe77a	-0.0062226625
146	0x3c98435c	0.018586807
147	0xbb8730a3	-0.004125671
148	0x3c8fbf22	0.017547194
149	0x3d30ee25	0.043195862
150	0x3d0b340b	0.03398518
151	0xbc4672fa	-0.0121123735
152	0xbbb7c376	-0.0056080176
153	0xbbfa1e5a	-0.0076330127
154	0xbc1f4aac	-0.009722393
155	0x3c56518f	0.0130809685
156	0x3c30e3ea	0.010796526
157	0xbc3510b3	-0.011051345
158	0xbc0d8ed7	-0.008640013
159	0x3c86d339	0.01645814
160	0xbbfd6a63	-0.0077336296
161	0x3b8b0977	0.0042430717
162	0x3c84349b	0.016138365
163	0x3bbb7106	0.0057202606
164	0xbc29faa7	-0.010374702
165	0xbc0a6017	-0.008445761
166	0xbc1cf89f	-0.00958076
167	0xbbfcd858	-0.00771622
168	0xbc57c8c7	-0.013170428
169	0x3b29a86b	0.0025887738
170	0x3aa0b371	0.0012260509
171	0x3bdbf8d2	0.0067130113
172	0xbc2398c5	-0.009985154
173	0xbbd9b230	-0.006643556
174	0xbbbe3d49	-0.0058056456
175	0xbc0bbd27	-0.008528984
176	0xbbdb3864	-0.006690072
177	0xbbc18de9	-0.0059068096
178	0x3c96bc36	0.018400293
179	0xbbeb66c3	-0.007183881
180	0x3a55dadf	0.00081579195
181	0xbbea3e57	-0.007148545
182	0x3b263469	0.0025360829
183	0xbc2633ed	-0.010144216
184	0x3c7074ce	0.014676286
185	0x3ce219a8	0.027600124
186	0xbbfcf84b	-0.0077200285
187	0xbc22aed6	-0.009929379
188	0x3ac0527b	0.0014673019
189	0xbc31abfe	-0.010844229
190	0xbc26a319	-0.010170721
191	0xbbf16fa7	-0.0073680463
192	0xbc2a2b42	-0.01038629
193	0xbc2a8d4d	-0.010409665
194	0xbc2ffecc	-0.010741901
195	0xbc3dcbd9	-0.011584246
196	0xbc53dc38	-0.012930922
197	0x3921eace	0.00015441628
198	0x3c450103	0.012024167
199	0xbc3150b6	-0.010822466
200	0x3c907595	0.017634192
201	0x3c17c410	0.009263054
202	0x3c98c69b	0.01864939
203	0x3c8be7b3	0.017078256
204	0xbbfbe83e	-0.0076875975
205	0x3c227758	0.009916149
206	0xbc4301c8	-0.01190228
207	0xbc1de8c7	-0.009638018
208	0xbbf15bc3	-0.007365675
209	0x3a872b6f	0.0010312627
210	0xbbc8e939	-0.006131318
211	0xb9b8951f	-0.0003520632
212	0x3c321cc2	0.010871114
213	0xbc1eb161	-0.009685845
214	0x3ba5d5bc	0.0050608795
215	0x3c7523e7	0.014962173
216	0xbc22c63d	-0.009934959
217	0xbc011d1e	-0.007880477
218	0x3ba0fbec	0.004912844
219	0x3a8d89c8	0.0010798508
220	0x3c03af2a	0.008037368
221	0xbc20945e	-0.0098009985
222	0x3c75e4a5	0.015008126
223	0x3cf3cedb	0.029761722
224	0x3bb9d844	0.005671533
225	0x3c2f2e42	0.010692181
226	0xbbcf5a7e	-0.006327926
227	0xbc14a2b7	-0.009071997
228	0xbc4c98cf	-0.012487604
229	0xbb4e1dd9	-0.0031450896
230	0xbc1dde7d	-0.009635565
231	0x3ba681f2	0.0050814087
232	0x3c970d00	0.018438816
233	0xbc0cc929	-0.008592882
234	0x3c081d6e	0.008307798
235	0x3b4c9d14	0.0031221556
236	0xbc35f54d	-0.011105848
237	0xbc1fe793	-0.009759801
238	0x3c8a969b	0.016917517
239	0x3c146877	0.0090581095
240	0xbc2871b6	-0.010281017
241	0xbc1143b4	-0.008866239
242	0xbc19bd0a	-0.009383449
243	0xbc51bd76	-0.012801519
244	0x39be781a	0.00036329107
245	0xbc4be907	-0.012445695
246	0x3c3da560	0.011575073
247	0x3afe91a0	0.0019422062
248	0xbbfc1451	-0.0076928516
249	0x3bfca3b3	0.007709944
250	0xbbb4942c	-0.0055108275
251	0x3c66d414	0.014088649
252	0xbb4a480d	-0.00308657
253	0xbc212f17	-0.009837887
254	0xbc31c81a	-0.010850931
255	0xbc484e41	-0.012225688

classifier.bias f4 [374]
0	0xaf848f1d	-2.4112348e-10
1	0xaf068c63	-1.2237104e-10
2	0xade92728	-2.6506422e-11
3	0xae0adc00	-3.1572966e-11
4	0xae0b31aa	-3.164905e-11
5	0x2f5c27e7	2.002306e-10
6	0x2f55307e	1.9389465e-10
7	0xad13d1f3	-8.402601e-12
8	0x2ffd32ce	4.605653e-10
9	0xaf0544e3	-1.2120753e-10
10	0xae879c74	-6.166881e-11
11	0xad3dea24	-1.0795396e-11
12	0xafb5e6f7	-3.3087819e-10
13	0xaf54c5d7	-1.9351575e-10
14	0xaf6050b5	-2.0401354e-10
15	0x2e7a38a4	5.6893726e-11
16	0x2eec8df9	1.0757257e-10
17	0x2e3e19da	4.322396e-11
18	0x2ee23cf1	1.02881155e-10
19	0x2eb89f78	8.3956786e-11
20	0xaf570a3e	-1.9557775e-10
21	0xaeabb423	-7.8081784e-11
22	0xadf38060	-2.7682912e-11
23	0x2ed86f5d	9.842325e-11
24	0x2f487f05	1.823502e-10
25	0xaf251ea0	-1.5017543e-10
26	0xb0398393	-6.7489586e-10
27	0x2f0a3822	1.2570969e-10
28	0xaee6c2cb	-1.0493791e-10
29	0x2ff34577	4.42508e-10
30	0xaf24c5db	-1.4986005e-10
31	0xaf945480	-2.6981084e-10
32	0xafd37495	-3.8463513e-10
33	0xae9fe805	-7.271698e-11
34	0x2f834bde	2.3882668e-10
35	0x2f72363e	2.2029042e-10
36	0xae3df0a2	-4.318735e-11
37	0x2ef4fa63	1.1140313e-10
38	0x2f129092	1.3329984e-10
39	0xaf0508a3	-1.2099348e-10
40	0x3008ee8b	4.98155e-10
41	0xafbb9629	-3.4121797e-10
42	0xac86ef2d	-3.835063e-12
43	0xafd7fe1f	-3.9288836e-10
44	0x2f5f1206	2.0288135e-10
45	0x2ec66269	9.021479e-11
46	0xaf8c69dc	-2.554107e-10
47	0x2f0e44fd	1.2939334e-10
48	0xad82aa94	-1.485504e-11
49	0xafa6431e	-3.0242914e-10
50	0x2f285f64	1.53134e-10
51	0xaea482a2	-7.4810616e-11
52	0xb016c3b0	-5.484777e-10
53	0x2e99943e	6.9839676e-11
54	0xb0107acd	-5.2561405e-10
55	0xaf8db43d	-2.5775818e-10
56	0xb0317951	-6.4564626e-10
57	0x2f83fab9	2.400691e-10
58	0x2fa8a6f9	3.0677663e-10
59	0x303e5658	6.92443e-10
60	0x2f8960a0	2.498881e-10
61	0x2f4b4a7f	1.8489209e-10
62	0xaed27fc2	-9.572389e-11
63	0x2fee0713	4.3296974e-10
64	0xafb7f7fd	-3.3463712e-10
65	0xafc84bce	-3.643365e-10
66	0xaed98059	-9.8908166e-11
67	0x2ea3cad9	7.448415e-11
68	0xaffca27d	-4.5953988e-10
69	0x2fad5c53	3.1534117e-10
70	0x2ef41afa	1.11006274e-10
71	0x2f634a76	2.0671984e-10
72	0x2e95e619	6.816609e-11
73	0x2e3dbfa5	4.314384e-11
74	0x2dad42b2	1.9697442e-11
75	0xad5cd9c0	-1.2553902e-11
76	0xae9b9f92	-7.076929e-11
77	0x300f2722	5.207871e-10
78	0x2f183b85	1.3845465e-10
79	0x92163757	-4.7399866e-28
80	0xafb5e4b8	-3.3086223e-10
81	0xaf98b5dd	-2.777786e-10
82	0x2ea7379a	7.6041576e-11
83	0xb01206a8	-5.312395e-10
84	0x2fcbadc4	3.7048953e-10
85	0x2d0604f2	7.618116e-12
86	0x2ec5ef22	9.001001e-11
87	0x2efdadcb	1.153598e-10
88	0x2f6995e5	2.124448e-10
89	0x2fc4c584	3.5792536e-10
90	0x2f3bdead	1.7086661e-10
91	0x2fed5ddb	4.3176737e-10
92	0x2dca3da3	2.2992113e-11
93	0x2f8bcd06	2.542963e-10
94	0xae291c37	-3.845121e-11
95	0xaf073ba6	-1.229937e-10
96	0x2f9c26a7	2.84037e-10
97	0x2fe9a409	4.2499007e-10
98	0xafc731c9	-3.6233264e-10
99	0x2e311407	4.026293e-11
100	0xaf8ab3fc	-2.522994e-10
101	0x2d9e5c73	1.8003576e-11
102	0xae9cce7a	-7.130736e-11
103	0xaf6b8528	-2.1420432e-10
104	0xaf6d5292	-2.1584359e-10
105	0xae6102b3	-5.1161474e-11
106	0xaca280a1	-4.6185976e-12
107	0xaeb32d81	-8.148061e-11
108	0xaf8c8797	-2.5562194e-10
109	0x2fa7195f	3.039515e-10
110	0xafb7652c	-3.3359393e-10
111	0xaebf69b7	-8.704453e-11
112	0xaed1cfe5	-9.541149e-11
113	0x2f59852d	1.9783349e-10
114	0xaf2c8416	-1.5690235e-10
115	0xae4a6c1e	-4.602551e-11
116	0x2ed5124d	9.6893694e-11
117	0x3065362b	8.338669e-10
118	0x30160226	5.4572735e-10
119	0x2fab374f	3.1144018e-10
120	0xaf527e1b	-1.914419e-10
121	0xaeb41502	-8.189184e-11
122	0xae129241	-3.3326456e-11
123	0x2eebe0a0	1.0726464e-10
124	0x2f3aee16	1.7001187e-10
125	0xace6d38f	-6.560481e-12
126	0xae9a0d28	-7.005446e-11
127	0x2fe5b7d4	4.1785475e-10
128	0xaf27c525	-1.5258601e-10
129	0x2e24ce79	3.7472667e-11
130	0xaf986e9a	-2.7727226e-10
131	0x2ea5fdd8	7.548423e-11
132	0xaf038084	-1.1960039e-10
133	0x2e4b722b	4.6258258e-11
134	0xaf99675b	-2.7903976e-10
135	0xb025b971	-6.029018e-10
136	0x2da4ac46	1.8721146e-11
137	0x2f4784ee	1.814617e-10
138	0xafee2948	-4.332128e-10
139	0xaf4cd759	-1.8630199e-10
140	0xb012ac10	-5.3359006e-10
141	0xaf9d02a2	-2.8560004e-10
142	0xafcdc07f	-3.742606e-10
143	0x2f356d72	1.6500737e-10
144	0xaf194502	-1.3939785e-10
145	0x2f29c894	1.544172e-10
146	0x2e5827e5	4.9148147e-11
147	0xaf9fbf78	-2.9057978e-10
148	0xae8b6f65	-6.340776e-11
149	0x2fe1515a	4.0985065e-10
150	0x2fa5ca99	3.015728e-10
151	0xaea8b8e9	-7.672602e-11
152	0xb02fea24	-6.3997363e-10
153	0xaf4c4127	-1.8576839e-10
154	0x30082437	4.9527976e-10
155	0xae06fb37	-3.0691196e-11
156	0xae7b3534	-5.7118046e-11
157	0x303504f2	6.5854444e-10
158	0xada4b28d	-1.8723934e-11
159	0x2ec02d9d	8.739252e-11
160	0xaf95b4ba	-2.7231356e-10
161	0xaefb5680	-1.1429524e-10
162	0x2f2faf9b	1.5978545e-10
163	0xaf13b570	-1.3434032e-10
164	0xaed93ccb	-9.8788165e-11
165	0xaf714cc6	-2.1946098e-10
166	0xae16224d	-3.4136517e-11
167	0xaf7ac29a	-2.2806504e-10
168	0x2f33c800	1.635101e-10
169	0xaee6bed9	-1.04930904e-10
170	0x2f138496	1.3416676e-10
171	0xafa317e0	-2.9666491e-10
172	0xad8550ab	-1.5156173e-11
173	0x2ecb7377	9.251882e-11
174	0x2ef7496a	1.12453005e-10
175	0x2f869668	2.4481328e-10
176	0x2e79f7f2	5.6836265e-11
177	0x2f6c819d	2.1510123e-10
178	0xaf6a2564	-2.129546e-10
179	0xaf3a723f	-1.695719e-10
180	0x1400f125	6.509906e-27
181	0xaee141e4	-1.024352e-10
182	0xaf6e4a98	-2.1672475e-10
183	0xafbb3f3e	-3.4060038e-10
184	0x2eb44100	8.1969986e-11
185	0x2f542196	1.929322e-10
186	0x2f0bc6b4	1.271257e-10
187	0xaf40a5bc	-1.7521179e-10
188	0xaece4b0c	-9.3811264e-11
189	0xaec16bea	-8.795793e-11
190	0xafab5574	-3.1165437e-10
191	0x2f7ae64c	2.2819185e-10
192	0xaeda9407	-9.939787e-11
193	0xafc86c6a	-3.645682e-10
194	0x2bdd2a6f	1.5714772e-12
195	0xad2d6be9	-9.857872e-12
196	0xaf290a47	-1.5374112e-10
197	0xaf1aa38c	-1.4064322e-10
198	0x2f97ee24	2.763595e-10
199	0x2deea292	2.7129663e-11
200	0xafbc14e9	-3.4211858e-10
201	0x2ef6af0d	1.121788e-10
202	0x2f9b2aa3	2.822463e-10
203	0x2be7ce50	1.64708e-12
204	0xafd2b43d	-3.8326844e-10
205	0xafa52ab2	-3.0043662e-10
206	0x30043748	4.809988e-10
207	0xaf3646e6	-1.6577992e-10
208	0x2eb41b30	8.190282e-11
209	0xaf543bf2	-1.9302585e-10
210	0x2f8a7053	2.5181865e-10
211	0xafeeb590	-4.3420956e-10
212	0xaf388462	-1.6781734e-10
213	0x2f01c4aa	1.1802351e-10
214	0x2d9d688d	1.7895263e-11
215	0x2e85a792	6.077906e-11
216	0x2f7076ab	2.1870032e-10
217	0x2f9cc912	2.8519104e-10
218	0xaf5a1ba1	-1.98368e-10
219	0x2f0514e0	1.2103696e-10
220	0xaf02a5d5	-1.1882346e-10
221	0x2f188725	1.3872332e-10
222	0x2ea44b00	7.471179e-11
223	0x2e5584fb	4.8548703e-11
224	0x2f6cbd1c	2.153126e-10
225	0x2f6e7f10	2.1691116e-10
226	0xaf763cd6	-2.2395183e-10
227	0xaf2185d7	-1.4690414e-10
228	0x2df9ab63	2.8384134e-11
229	0xae028b4b	-2.9682295e-11
230	0x2db6c95b	2.0780424e-11
231	0x2d96e765	1.7155785e-11
232	0xaf217404	-1.4684082e-10
233	0xaf8f4f39	-2.606784e-10
234	0x2f55da45	1.9449782e-10
235	0xafa8cdb4	-3.0705183e-10
236	0x2ffa60a1	4.5543394e-10
237	0x2f618f93	2.0514639e-10
238	0x2d657e13	1.3045137e-11
239	0x2ea374bc	7.433118e-11
240	0x2f23612c	1.4859286e-10
241	0x2f33ca43	1.6351813e-10
242	0x2f737963	2.2143846e-10
243	0x2f3266ba	1.6225501e-10
244	0xafad2bbb	-3.149959e-10
245	0x2f30f91f	1.6095612e-10
246	0x2b3e62d5	6.7638717e-13
247	0xaf857a49	-2.4279448e-10
248	0x9326b4a9	-2.1041218e-27
249	0x2d2070c5	9.119987e-12
250	0xad1d9c9d	-8.959192e-12
251	0xaf163c63	-1.3663874e-10
252	0xad62afbf	-1.2885636e-11
253	0x2e68b2fb	5.290966e-11
254	0x2e93a9c6	6.714944e-11
255	0x2f1bdc2d	1.417539e-10
