logs/tabular-Linear/rcv1subset1_top944/256/pa/0.01/checkpoint/rcv1subset1_top944_256_pa_0.01.pth (torch, 383586 bytes, 2 tensors)

classifier.weight f4 [101, 944]
-0.017658776 -0.011624852 0.009670707 -0.026543602 -0.013506954 -0.010421518 -0.0001515214 -0.008177489
-0.016318155 -0.036522985 0.085739836 -0.03486221 -0.011624752 -0.013947506 -0.003451048 -0.014255107
0.007718523 -0.0038907344 -0.022310218 -0.01426196 -0.0048933164 0.017985355 0.042018265 0.013010933
-0.008389511 -0.008675005 -0.014997081 0.023502722 0.02850003 -0.008186833 -0.019703321 -0.014632228
-0.0135312285 -0.010600865 -0.014409982 0.011711392 0.021625958 0.00635412 0.025393268 -0.015828185
-0.010722683 -0.00017236301 0.014584025 0.017915968 0.024059268 -0.0037444094 -0.008942904 0.024710726
-0.035138655 -0.019805191 -0.028343093 -0.021526424 -0.027734905 -0.014622244 -0.023227569 0.022132251
0.01012496 0.015641661 0.012049244 0.0020665023 0.021928892 -0.019987375 -0.02544068 0.008463985
0.040564958 -0.021588821 -0.0055008936 -0.008456002 -0.019586934 -0.0023871337 0.00786966 -0.009492897
0.020758798 -0.005445802 0.0017315391 -0.018789155 0.032108553 -0.0119657945 -0.012878481 -0.023695748
-0.03047657 -0.013296577 0.025591373 -0.028506538 0.012733663 -0.006784524 -0.019275332 0.021472396
-0.009652588 -0.021313047 -0.026763264 -0.005118883 0.00040474813 0.014919046 0.0206215 -0.017500283
0.03399212 0.0004534062 0.021547295 -0.019833546 -0.0046005007 0.0028897738 -0.0011141434 -0.01634106
-0.022300437 0.008461812 -0.014284122 -0.010227476 -0.014329266 0.011137506 -6.528227e-05 0.0040606945
0.008200456 -0.0020333556 0.004738131 -0.018608538 -0.008170386 -0.013671513 -0.009534236 0.028573629
-0.0071558235 0.008072934 0.00044742096 -0.010816373 -0.011521467 0.008088894 0.012023272 0.01843325
0.014542331 0.034548055 -0.0004774027 -0.016477335 0.011436992 -0.006215939 -0.0029164809 -0.0034912573
-0.009975946 -0.024482507 -0.015101896 -0.008368002 0.004053808 -0.0018428502 0.00037473787 -0.018317517
-0.021092787 -0.01794623 -0.008831701 0.02287762 -0.003305888 -0.0036538728 0.030207017 -0.011220945
-0.027701225 -0.011254057 -0.008193401 -0.023128266 0.024663659 0.020141123 -0.015249487 -0.0015613314
0.018522684 -0.010702571 0.032283537 0.0054175872 -0.005147641 -0.02619131 -0.018313617 -0.016778108
-0.0028119548 0.022044474 -0.002081366 0.0066266907 0.0070360755 0.022439135 -0.013032438 -0.005706772
-0.02010207 0.0019624156 0.0038641784 -0.018922105 -0.009825225 0.016909525 0.0030121699 0.004909308
0.0022666354 -0.010102887 -0.018429993 -0.011306102 -0.0009345328 -0.014434585 0.0029330237 -0.0037100825
-0.0072368737 -0.013386775 0.00010745195 -0.006716853 -0.01400034 0.0060251392 -0.009668384 -0.0026489082
-0.005479047 0.001877446 0.018078525 0.0045225997 -0.0046230354 -0.014336799 -0.0014498744 0.037067093
0.002745719 -0.01624732 -0.016007265 -0.020431923 -0.0051631704 0.012672667 0.020996511 -0.010384618
-0.017449837 -0.02141146 0.01498148 0.010219606 -0.0123623535 -0.02268138 0.018839652 0.02706452
0.010588263 -0.015769903 -0.016273577 -0.014618278 -0.009554703 -0.013601715 0.012708963 -0.0017463708
-0.013050227 -0.0014801553 0.0050967666 0.0032740096 0.010810181 0.00392017 0.005973182 0.011122403
0.010902983 -0.00046864944 -0.013925008 8.613251e-06 -0.009202962 -0.019509468 -0.02020318 -0.011510828
-0.012265747 0.008475734 -0.009648604 -0.017632293 0.0048792297 0.007242608 -0.011959179 -0.002294619
00000000: 23a9 90bc 2a76 3ebc e371 1e3c f871 d9bc
00000010: 454c 5dbc 04bf 2abc b7e1 1eb9 e0fa 05bc
00000020: a7ad 85bc 2099 15bd 5e98 af3d adcb 0ebd
00000030: be75 3ebc 1584 64bc fa2a 62bb 418e 69bc
00000040: aaeb fc3b b1fb 7ebb ebc3 b6bc ffaa 69bc
00000050: 1d58 a0bb 0656 933c 581b 2c3d cf2b 553c
00000060: 2974 09bc 9c21 0ebc 51b6 75bc c888 c03c
00000070: e578 e93c 1122 06bc dc68 a1bc 03bc 6fbc
00000080: 16b2 5dbc 40af 2dbc d817 6cbc 23e1 3f3c
00000090: ec28 b13c 3936 d03b 8b05 d03c 1caa 81bc
000000a0: 31ae 2fbc 58bc 34b9 d6f1 6e3c 82c4 923c
000000b0: f117 c53c c464 75bb 4285 12bc 266e ca3c
000000c0: 8ded 0fbd 7f3e a2bc c62f e8bc 2f58 b0bc
000000d0: 5034 e3bc 2392 6fbc be47 bebc b24e b53c
000000e0: 29e3 253c f122 803c 316a 453c 286e 073b
000000f0: 38a4 b33c 90bc a3bc f968 d0bc 87ac 0a3c
00000100: 7127 263d 0adb b0bc d740 b4bb 0b8b 0abc
00000110: c774 a0bc 7571 1cbb bfef 003c 1988 1bbc
00000120: 5b0e aa3c b372 b2bb d0f4 e23a b7eb 99bc
00000130: 4284 033d 2e0c 44bc 4400 53bc 961d c2bc
00000140: 00aa f9bc e3d9 59bc 00a5 d13c 8b86 e9bc
00000150: dba0 503c b650 debb 4de7 9dbc e1e6 af3c
00000160: e325 1ebc b398 aebc a23e dbbc 4ebc a7bb
00000170: 6034 d439 046f 743c 6cee a83c c15c 8fbc
00000180: 523b 0b3d 26b7 ed39 f483 b03c f679 a2bc
00000190: ccbf 96bb 5c62 3d3b 7308 92ba b0dd 85bc
000001a0: 68af b6bc 69a3 0a3c f307 6abc 2591 27bc
000001b0: 4cc5 6abc 167a 363c 27e8 88b8 930f 853b
000001c0: 355b 063c 0c42 05bb 5342 9b3b ef70 98bc
000001d0: 15dd 05bc 7bfe 5fbc 7c35 1cbc 3e13 ea3c
000001e0: 667b eabb 5744 043c d393 ea39 2837 31bc
000001f0: 89c4 3cbc 4887 043c 42fd 443c 5401 973c
00000200: f542 6e3c 4382 0d3d e84b fab9 7afb 86bc
00000210: 3962 3b3c 13af cbbb 6e22 3fbb 94cd 64bb
00000220: 2672 23bc 8a8f c8bc f16d 77bc f219 09bc
00000230: ced5 843b cb8b f1ba 7778 c439 9e0e 96bc
00000240: c8ca acbc f903 93bc d7b2 10bc d969 bb3c
00000250: 99a7 58bb d075 6fbb b574 f73c 0ed8 37bc
00000260: aeed e2bc f062 38bc 9d3d 06bc 7d77 bdbc
00000270: 710b ca3c fffe a43c fcd8 79bc 97a5 ccba
00000280: e2bc 973c d659 2fbc be3b 043d 0486 b13b
00000290: 8bad a8bb 288f d6bc 7006 96bc 3e72 89bc
000002a0: c648 38bb 9d96 b43c 8767 08bb b624 d93b
000002b0: e18e e63b 47d2 b73c 0286 55bc e0ff babb
000002c0: 19ad a4bc df9b 003b 283e 7d3b 8802 9bbc
000002d0: fbf9 20bc d885 8a3c d367 453b 43de a03b
000002e0: d58b 143b 9486 25bc 7ffa 96bc 3b3d 39bc
000002f0: 6ffb 74ba 0a7f 6cbc f937 403b db24 73bb
00000300: 4c23 edbb 3454 5bbc d457 e138 0c19 dcbb
00000310: af61 65bc 886e c53b 2468 1ebc 4e99 2dbb
00000320: 9489 b3bb a214 f63a 6a19 943c 5132 943b
00000330: d57c 97bb e5e4 6abc b609 beba aad3 173d
00000340: 85f1 333b 1a19 85bc ab21 83bc d960 a7bc
00000350: d02f a9bb 05a1 4f3c e000 ac3c 3f24 2abc
00000360: f6f2 8ebc 1667 afbc e274 753c 2270 273c
00000370: 788b 4abc 4dce b9bc 9d55 9a3c 6ab6 dd3c
00000380: 657a 2d3c e22f 81bc 2a50 85bc 8081 6fbc
00000390: 548b 1cbc bad9 5ebc 4139 503c 7be6 e4ba
000003a0: 9fd0 55bc c501 c2ba c702 a73b c490 563b
000003b0: 2f1d 313c c574 803b afba c33b bd3a 363c
000003c0: 6da2 323c 10b5 f5b9 b725 64bc a281 1037
000003d0: 05c8 16bc 52d2 9fbc 2481 a5bc e997 3cbc
000003e0: 46f6 48bc cedd 0a3c 2e15 1ebc 9971 90bc
000003f0: f2e1 9f3b 6653 ed3b 6ff0 43bc 5261 16bb

classifier.bias f4 [101]
-1.4735901e-10 -2.1283532e-10 -2.009686e-10 -1.7745097e-10 5.477617e-11 4.4806773e-11 -5.119799e-11 -1.9632385e-10
6.940414e-10 -1.3930724e-11 4.5189052e-10 -8.7943805e-11 -6.6078754e-10 -1.7720415e-10 -9.254054e-11 3.7591943e-10
2.6517535e-10 2.5005664e-10 -1.0112747e-10 -2.0500743e-10 2.7931965e-10 6.037158e-10 -6.357229e-10 1.1570121e-10
7.979866e-11 1.9551065e-10 1.1716247e-10 -8.984486e-12 -1.2465992e-10 3.1845027e-11 1.7526496e-10 -3.151035e-10
1.0227095e-11 -2.560147e-10 6.025922e-10 -6.7502204e-10 2.2154019e-10 -1.7879041e-10 -6.765897e-11 1.0302007e-10
-4.306355e-10 3.2903457e-29 7.06854e-11 2.8879182e-10 4.7723537e-11 -8.148482e-11 -6.712791e-11 3.0091712e-10
-1.6788346e-10 1.2038931e-10 -5.2852234e-10 7.697174e-11 -3.793389e-11 6.831568e-10 -4.2591736e-11 -3.43224e-11
2.6287778e-10 -2.3381658e-10 2.44885e-11 -6.066224e-11 2.4182292e-10 -4.561709e-11 -2.2192846e-10 -2.3387936e-10
-2.5126173e-10 -5.592865e-11 -2.6781277e-12 3.0443248e-10 -2.157066e-10 9.688944e-11 -2.5655178e-10 -2.2969639e-10
1.7978526e-10 -3.010361e-11 6.645634e-11 -1.0862365e-10 -4.6303597e-10 -2.1006274e-10 -1.6447113e-10 -1.1593324e-11
-2.8749256e-10 2.2934261e-10 -4.475143e-10 -1.6478294e-11 1.484539e-10 1.2335373e-11 -1.1926456e-10 -1.4890005e-10
-4.5017722e-11 5.120698e-11 2.0256882e-10 6.8701594e-10 1.1638988e-10 -4.3381448e-10 -3.0342662e-10 1.2495587e-10
-1.2552385e-11 -9.8119714e-11 6.8983055e-11 2.4290578e-10 -2.1277642e-10
00000000: e005 22af d103 6aaf a2f7 5caf 021c 43af
00000010: 7ce8 702e f10f 452e d02b 61ae 40dc 57af
00000020: d2c6 3e30 6712 75ad f06d f82f f663 c1ae
00000030: caa2 35b0 89d6 42af b17f cbae f5a9 ce2f
00000040: 1dc8 912f 5878 892f b461 deae 7668 61af
00000050: bf8e 992f b9f2 2530 06bf 2eb0 fe6d fe2e
00000060: a77a af2e 5bf7 562f 4ed2 002f 870e 1ead
00000070: a610 09af 500e 0c2e b3b4 402f e03a adaf
00000080: beea 332d debe 8caf a8a3 2530 748c 39b0
00000090: 0596 732f 0795 44af 9dc8 94ae 258b e22e
000000a0: 8fbe ecaf 21d7 2610 5870 9b2e d6c3 9e2f
000000b0: ede3 512e e02f b3ae a79d 93ae 526e a52f
000000c0: fe96 38af 945e 042f 7447 11b0 3d43 a92e
000000d0: c3d5 26ae e3c8 3b30 0852 3bae 96f3 16ae
000000e0: c284 902f c28a 80af 3367 d72d ce65 85ae
000000f0: 8df1 842f 47a0 48ae 4f03 74af 9893 80af
00000100: f221 8aaf 10fa 75ae dc74 3cac 105d a72f
00000110: 032c 6daf e80f d52e 740a 8daf c98d 7caf
00000120: 0dad 452f a765 04ae 9823 922e aedd eeae
00000130: 858e feaf 68f7 66af 82d6 34af b1f3 4bad
00000140: fb0c 9eaf 352a 7c2f 0a06 f6af d2f1 90ad
00000150: 0f3a 232f 9501 592d fd21 03af a3b7 23af
00000160: 73fd 45ae ef35 612e 0eba 5e2f 73d8 3c30
00000170: adf1 ff2e f67d eeaf 80cf a6af f363 092f
00000180: ebd2 5cad 7dc4 d7ae 02b2 972e f389 852f
00000190: 3df3 69af
